checkpoints/195_net_A_2.pth (torch, 840873 bytes, 20 tensors)

fe1.weight f4 [64, 3, 3, 3]
00000000: 2f91 a0bc 6824 4c3d f499 963d 2e9f 54bd
00000010: a129 453d 1f6b 893d 800f 1dbc 9c8e 3b3d
00000020: 2eaf 9c3d eefe 9dbd 65e9 04bb c885 113d
00000030: 19ea b2bd f203 e03c 3974 703d b8b8 2dbd
00000040: 1961 d53c 89a8 773d f62a cabd 642c 513c
00000050: ee2f 453d 1d75 aebd f0f3 f43c c00c f13c
00000060: 64ff 78bd 14ca 773c 46bd 2a3d 8506 3dbc
00000070: 034b ccbc 0d2c b7bc ca82 64bd 6b1e b73c
00000080: e326 26bd fe98 19bd c164 a1bc c4ff a1bc
00000090: e6b3 6abd 3941 54bc 0c11 9bbc c42d 06bd
000000a0: 7f9c d5bb d679 2f3c 96b5 25bd 3773 6c3c
000000b0: 86e6 93bc b67a 11bb f2ee 4bbc 2936 e33c
000000c0: 2b43 9d3c 74bd 9a3d 4824 613d e07c 7a3c
000000d0: 8440 813d fe9f 963d e331 12bb ebb8 27bd
000000e0: a615 923b d216 f93a dbbc 2fbd bdc8 99bc
000000f0: 35aa 90bd 18f5 12bd fa63 8bbb 0f8c 16bd
00000100: 888a 25bd 6d0e 00bc b708 04bd a25f f13b
00000110: 6807 07bc 795a 0ebd dc7f 02bd 2de9 01bd
00000120: 8a0b 2b3d 8b8e d83c 1ee4 203d 02d9 313d
00000130: 50f0 ca3c 769a 763d 4f76 f53c d842 f33c
00000140: 3c53 513c 5c58 123d 653f 573d 775c 173d
00000150: 64fd ac3c 87a5 c83c cc8c a33c 0abb 0eba
00000160: 37dd 813c fef0 793c b78f 9abb 4118 2abc
00000170: 00e4 fa3b 678a 833b 13ec 01bc 6410 0b3c
00000180: bedd 70bb 6b03 5f3c 3fd7 0bbd cabd 30bc
00000190: 7c50 adbd fe92 c4bc 5910 90bd abd2 31bd
000001a0: 0803 19bd ba2b 11bd 1308 71bc 3bb4 27bd
000001b0: 3eb5 443b 25b4 9bb8 8d9e fe3c 0661 7dbc
000001c0: 32c6 2dbc d37f f9bc 0fc5 6ebc 3ff4 923c
000001d0: ddda 85bb 2f53 edbc 65a6 ca3b 62d6 ec38
000001e0: 6365 75bb 6003 923c 573f 8bbc 8707 43bb
000001f0: d117 12bc fcf9 fc3b 4ba3 3cbd dd47 48bd
00000200: 6ed2 7fbd 8190 2bbd e48d 1cbd 0c3e 5cbc
00000210: 993f a5bd e741 8dbd 5208 2cbd a47c 803b
00000220: d09e ff3c 71e5 593d 17d8 a9bc a557 423d
00000230: 7afd a23d 3aed 493d 6788 2c3d 92f4 a83d
00000240: 4cd7 ac3b e3b4 99bc 77e9 b7ba b4cb 4fbd
00000250: ec3d bebc 8e70 f83b 32ed 193c 2e79 1abd
00000260: 3096 b83c fa80 03bd 2b76 26bc 9a8f 3f3c
00000270: 7ae6 17bd ee13 99bd 2bf5 8dbc d038 8bbc
00000280: b8df 9abd 4603 f3bc 3625 00bc 3390 e7bc
00000290: 83f8 1e3a d369 023d 0dc7 dbbc 6720 9d3b
000002a0: 888a d43c 3e58 75bc bc20 86bc b3ee 2c3c
000002b0: e610 b43c 9ded 383c 4abb 3bbc cb6a 003d
000002c0: 6d7e 043b 4585 84bc 2af0 f4bc 8ef4 2e3d
000002d0: 7f93 9fbd a45c 17bd c8c0 26bd 9ddb 4dbd
000002e0: 257a 36bd 4bea 01bc 37bf 35bd 5e64 ae3b
000002f0: b85b aabc 86c0 873d 9d91 da3c f03e f73c
00000300: c3ee 663d 7f06 2a3c ab42 cc3c bf44 5e3c
00000310: 7925 083d 9e92 2c3d c3b2 a63c a692 d23c
00000320: 8d88 dd3c 0d92 38bb f94d e33c 330a 5cbb
00000330: f100 de3c 68c5 54bc c900 ebba 41a6 5fbb
00000340: 84db 7abc bd66 85bd 57c0 f33c 9df9 833c
00000350: d42c 183c 467a a439 0a05 80bc d73a ffbc
00000360: 5fb9 0abd 64dc b13c f5fe 893c 64e2 aab8
00000370: 3fdb 943c 857c bf3c c7c7 ae3c 2074 27bd
00000380: a7fa ab3c 7de7 0fbc 1f25 663b 2c63 08bd
00000390: 3982 6c3c 9482 bfbc 2c8d a5bc 580f 43bc
000003a0: b26d 28bd 43d3 82bd 7340 00bd 9ee7 d9bc
000003b0: 3f15 6bbc 07fc 10bd bffb 63bd 39a0 35bd
000003c0: 1e23 b0bc 53f3 babc 6290 09bd ecd8 0b3c
000003d0: 5135 44bb a6bc 1fbc 5b2e a939 b409 06bd
000003e0: 4501 b3bd 44d8 633b c21c a2bd a969 aabd
000003f0: fbf5 993d ee82 5b3d 91ac 1f3c d7fc 523d
-0.019600479 0.049839407 0.07353583 -0.051909618 0.048135404 0.06709885 -0.009586215 0.0457903
0.076506004 -0.077146396 -0.0020280716 0.035527974 -0.08736057 0.027345631 0.05870459 -0.04241249
0.026047276 0.060463462 -0.098714754 0.012766931 0.048141412 -0.08518431 0.029901475 0.029425025
-0.060790434 0.015123863 0.04168441 -0.011537199 -0.024938112 -0.022359872 -0.055788793 0.022353372
-0.04056443 -0.03749942 -0.019701364 -0.019775279 -0.05730047 -0.012955003 -0.018929027 -0.03275849
-0.0065189 0.0107102 -0.040456377 0.014431766 -0.018054258 -0.0022198386 -0.012447106 0.027735787
0.019197067 0.075556666 0.05496624 0.015288562 0.063111335 0.07354735 -0.0022307567 -0.040947836
0.004458147 0.0019003993 -0.042904716 -0.018772477 -0.070637144 -0.03587827 -0.0042538615 -0.036754664
-0.040415317 -0.007815939 -0.032234874 0.0073661366 -0.008241512 -0.03475425 -0.031860217 -0.031716514
0.04175905 0.026435157 0.03928005 0.043419845 0.024772793 0.0602059 0.02996364 0.02969496
0.012776192 0.035728797 0.052550692 0.036953416 0.02111692 0.024492992 0.019964598 -0.0005444741
0.015852554 0.015255211 -0.004716839 -0.010381759 0.0076565742 0.0040143016 -0.00792982 0.008487795
-0.0036753262 0.013611655 -0.03414082 -0.010787437 -0.08462617 -0.023995873 -0.07034368 -0.0434138
-0.037356406 -0.03544209 -0.014711398 -0.040943366 0.0030015255 -7.4245305e-05 0.031081462 -0.015465027
-0.0106063355 -0.03045646 -0.01457335 0.017938731 -0.0040849284 -0.02897033 0.0061843866 0.00011293289
-0.0037444464 0.017823875 -0.016997976 -0.0029759125 -0.008916811 0.00772023 -0.046054166 -0.04889666
-0.06245654 -0.041885857 -0.038221255 -0.0134425275 -0.08068771 -0.068973355 -0.042000122 0.0039211083
0.031203657 0.053197328 -0.020732922 0.047446866 0.07958503 0.049298503 0.04212227 0.08249773
0.005274689 -0.018763011 -0.001403137 -0.050731376 -0.023222886 0.007581777 0.009394931 -0.037713222
0.022532552 -0.032105424 -0.010160009 0.011691952 -0.037085034 -0.074745044 -0.01732882 -0.016994864
-0.07562202 -0.029664647 -0.007821372 -0.028267002 0.0006064253 0.031839203 -0.026828313 0.0047951224
0.025944963 -0.014974652 -0.01637303 0.010554957 0.021980714 0.01128712 -0.011458227 0.031351846
0.0020216957 -0.01617683 -0.029899675 0.042713694 -0.077918045 -0.036953583 -0.040711194 -0.050258268
-0.04455008 -0.007929395 -0.04437181 0.0053220233 -0.020795688 0.06628518 0.026680762 0.030181378
0.056380045 0.010377525 0.024934134 0.013566195 0.03323886 0.042132013 0.020348912 0.025704693
0.027042652 -0.0028163225 0.027747141 -0.0033575415 0.027100058 -0.012986518 -0.0017929311 -0.0034126195
-0.015311126 -0.065137364 0.0297548 0.016110236 0.009288032 0.00031371618 -0.015627403 -0.031155987
-0.03386819 0.021711536 0.016845206 -8.1484e-05 0.018170951 0.023374805 0.021335496 -0.04088223
0.020993544 -0.008783218 0.003511734 -0.033297703 0.014435344 -0.023377694 -0.020208918 -0.011905514
-0.04112024 -0.06387951 -0.031311464 -0.026599701 -0.014348327 -0.035396602 -0.055660006 -0.044342253
-0.02150112 -0.022821104 -0.03358496 0.008535605 -0.0029939006 -0.009749567 0.0003226873 -0.032724097
-0.087404765 0.0034766356 -0.07915641 -0.08320934 0.0751762 0.05359166 0.009745733 0.051510658

fe1.bias f4 [64]
00000000: bd2f 08be 4e0b 37bc a49e cf3d 127e 323e
00000010: 3a17 2a3e ef9c 893c b945 bd3d 4fbb 58be
00000020: ee3e 473e b2f8 b4bc cf34 113e f65a 27be
00000030: fb51 66be 9041 273e aedc 243e 84f5 4ebd
00000040: 8b93 c83d 1842 403e 85f4 e4bd 080e ca3d
00000050: 51f5 68be ffce 1b3e 8832 683e 1130 153e
00000060: bf6c 6bbd 7a3e 2a3e cdcc ac3d b1dd 5dbe
00000070: ff33 523d 7be5 523e 8308 59be dbfe 003e
00000080: 60c3 f43c 3cd6 893c 4a04 243e 2824 63be
00000090: 9fff 46be 595b 6abe 31fa bf3d a211 1ebe
000000a0: d6bd 043e 740b b4bd ddb7 533e c6c4 08be
000000b0: e395 48be b02c e8bd a49f 3b3e 79b0 dd3d
000000c0: 7e79 67be c8e7 163d 3d24 0cbc ca1f 073d
000000d0: e1bf c23d b726 3ebe 0780 82bd 0c31 9d3d
000000e0: 648b c33d 3bb8 0cbe a3f2 5b3e 25b9 e8bd
000000f0: 90df d63b c93b 4fbe b069 573e 5fbd f2bb
-0.1329946 -0.011172129 0.1013768 0.17430905 0.16610423 0.016798465 0.09241814 -0.21165203
0.194576 -0.022091243 0.14180301 -0.16343293 -0.2249221 0.16333604 0.16099808 -0.05052711
0.097937666 0.18775213 -0.11179451 0.098659575 -0.22749831 0.15215681 0.22675526 0.14569117
-0.057476755 0.16625395 0.084375 -0.216666 0.05131912 0.20595352 -0.21194653 0.1259722
0.029878318 0.016825788 0.16017261 -0.22181761 -0.19433449 -0.22886409 0.09373892 -0.15436414
0.12963042 -0.08791247 0.20675607 -0.13356313 -0.19588427 -0.113366485 0.18322617 0.10824675
-0.2260494 0.036842138 -0.008553562 0.0329893 0.09509254 -0.18569456 -0.063720755 0.076753706
0.09548071 -0.13742153 0.21479277 -0.113634385 0.0065574124 -0.2023765 0.2103641 -0.0074078287

fe2.weight f4 [64, 64, 3, 3]
00000000: d091 2e3d 09e2 b4bc 47a5 4bbd 098e 843d
00000010: 1bb8 a9bb 7cfe 55bd fd01 9c3d 03d0 d9bb
00000020: 2c9d 47bd b055 ddba 6ada 3f3c 0797 673c
00000030: e9e4 743d 3f63 cf3c 9dfd 393c 3282 833c
00000040: 3a2d 9bbc 0f1b bebc 5325 4ebc 27a8 28bc
00000050: f8d3 bdbc 6cbe c7bc d5a5 9ebc f3f3 1ebd
00000060: 3e8b 533c 825a 38bb 40f4 303d d809 85bd
00000070: 4360 b6bd fbe5 8abd eaf7 c0bd b51b fcbd
00000080: 0032 96bd 5d15 0dbd cca0 23bd 9608 8dbc
00000090: e94b 98bd 1382 58bd 9fb6 64bd a96a 48bd
000000a0: 8bba 33bd 8cba 71bd 5877 10bd 1522 69bd
000000b0: 7a60 72bd 3781 cbbb 9a5f cabc 3d5c e8bc
000000c0: 0fd4 38bd 54c6 35bd e9fe 80bc bd38 9bbc
000000d0: f44d efbc 2143 24bd 7845 1bbd ef76 46bc
000000e0: ddd0 53bd b732 bfbc 2592 ebbc 95e9 01bd
000000f0: f7c2 51bb 3e8c 3f3b f597 c3bc f322 fabc
00000100: 41a5 dd3c 6fcd c5bc bf27 c63c 2e6f b83a
00000110: aea8 9a3c 8570 a63b ebbe 943c 1ca6 f63c
00000120: 3a37 81bd 5ab1 d9bd 2ca7 b8bd adaf 73bd
00000130: d75b d9bd 5e39 4dbd 7272 c3bd dc52 00be
00000140: d27a 96bd efc4 3cbd a744 cfbc 13b1 2b3a
00000150: 16eb 62bc 5f2e 323c 5889 033d 59f2 94bb
00000160: e7ce 403d afd5 483d 0ca6 b1bd 6ba2 a6bd
00000170: 454c ddbc 2a26 78bd 635c 38bd b697 92bc
00000180: e4d9 79bd b7a1 96bd c565 edbc 6ef8 d0bc
00000190: 4e49 d63c 2820 873c 1a94 11bd d95f 5c3c
000001a0: 80c6 553c 2ac8 833c d6b3 983c b585 2ebd
000001b0: 1bf8 bb3c e11a 543d a427 263d b09f 463d
000001c0: cdff aa3d 75e1 033d 7075 163d f970 3c3d
000001d0: 2347 b83c 9b1d dabc 829e 34bd 4c88 a0bd
000001e0: fb5c 4abd b985 95bd 95d2 27bd 2a18 37bd
000001f0: f1ba 47bd 942e 00bd e3c5 86bd c0d5 69bd
00000200: 5a7e 66bd 2105 d7bd 3d29 8cbd 761e 61bd
00000210: 0c61 5bbd 6163 e2bd 9f7b cebd 635e 39bd
00000220: 0a65 4abd ff18 c73c 76ee 0cbd bbb2 203d
00000230: 4a29 ebbc 9ada 67bc 984e 62bd c112 b8bc
00000240: 033d bfbd 0546 e9bd 3a83 11be 692b ccbd
00000250: 3e07 03be 7002 cfbd 85c6 77bd acbf 85bd
00000260: 7147 10bd 21c5 2cbd 4e10 b9bd 736d 87bd
00000270: a922 c9bd 448d d6bd 3cf9 8fbd d5da 9bbd
00000280: 24a1 c8bd f76f 30bd abe1 b73c 867e 53bc
00000290: 6842 05bd 51c5 5b3d fee1 653c 515c a8bc
000002a0: 4642 a33d 62c2 913b eb49 db3b 4396 81bd
000002b0: 4a15 00be 895b c8bd eee4 81bd ec5a c4bd
000002c0: 220c 6ebd 9044 e83a b75e 9a3b b722 bfbb
000002d0: 2413 2c3d a5cd 163d b71f 293d a684 cc3d
000002e0: e206 863d d6e4 e33c d073 8c3d f249 c83c
000002f0: a604 65bd 07ba 00bd 5fba b8bd e9c6 57bd
00000300: 5c69 a5bd 7513 e2bc 2f06 d0bd c527 8cbd
00000310: e5ab 92bd 89a1 87bd 854d 97bb cdeb 8abd
00000320: f4fd 9abd 6721 80bb 02d6 8abd 2dc9 27bd
00000330: efd7 9a3c b70f 063c 5827 8abc ddac d8bb
00000340: fea0 3bbd 84c6 60bd d1d3 fbbc f8dc 3cbd
00000350: 082b 81bd 28bd 57bd b372 5fbd 27f3 ebbc
00000360: e7ef 293d d023 2d3d cac0 49ba 7307 403c
00000370: 8e1f c23c 6ec7 6c3d 842c 133d f794 423d
00000380: 46e6 7ebc 2800 9abd baa2 31bd 186b 6ebd
00000390: c0a8 31bd 8b9e 22bd 868e 7bbc bdba 3e3d
000003a0: 3c34 0e3d c248 893d 45e9 a6bc 10a4 babc
000003b0: 1f64 303c a6a9 64bc f792 09bd 4b68 99bc
000003c0: 8cf8 23bd f6a6 c2bc c737 e5bb d98f 85bc
000003d0: 3a1e be3c 14e3 bdbb 5a17 7fbc f187 263d
000003e0: c251 85bb e4d1 ff3c 4c64 ab3c c599 1e3d
000003f0: c536 243d 3b9a 503d 7735 ae3c 9ae6 903d
0.042619526 -0.022080438 -0.049718168 0.064724036 -0.005179418 -0.05224465 0.07617567 -0.0066471114
-0.048733875 -0.0016886499 0.011709789 0.014135129 0.05978862 0.025315879 0.01135197 0.016053293
-0.018942464 -0.023206262 -0.012582141 -0.010293997 -0.023172364 -0.024382792 -0.019366184 -0.038806867
0.012911616 -0.0028130119 0.043201685 -0.06496018 -0.08905079 -0.067821465 -0.09422286 -0.12309972
-0.073337555 -0.0344442 -0.03994827 -0.017216008 -0.07436354 -0.052858423 -0.055838224 -0.048929844
-0.043879073 -0.059015796 -0.035270065 -0.05691727 -0.05917404 -0.006210472 -0.02470379 -0.028364295
-0.04512411 -0.044378594 -0.01574655 -0.018947953 -0.029211976 -0.04010308 -0.037908047 -0.012113317
-0.05171286 -0.023339612 -0.02875621 -0.0317169 -0.0032007077 0.0029227878 -0.02387617 -0.030534243
0.027056338 -0.02414581 0.024188874 0.001407122 0.01887926 0.0050793313 0.018157443 0.030108504
-0.06309362 -0.1062953 -0.090162605 -0.05949371 -0.1061322 -0.050103538 -0.09543313 -0.12531608
-0.07347645 -0.046086248 -0.02530129 0.00065495184 -0.013849994 0.010875314 0.032113403 -0.0045454917
0.047072317 0.04903191 -0.08674249 -0.081364475 -0.027013907 -0.06058327 -0.04500998 -0.017894607
-0.060998812 -0.073550634 -0.028979192 -0.025509086 0.026158001 0.016494825 -0.03554163 0.013450586
0.013047814 0.016086657 0.01864044 -0.04260798 0.022945454 0.051783446 0.040565148 0.048492134
0.083495714 0.032197434 0.03673309 0.046006177 0.022494858 -0.026625445 -0.044096477 -0.078384966
-0.04940508 -0.07300896 -0.04097231 -0.04470078 -0.048762266 -0.03129442 -0.06580713 -0.057088614
-0.056272842 -0.10499025 -0.06843803 -0.05496069 -0.053559348 -0.11054111 -0.100821726 -0.04525603
-0.049412765 0.024303911 -0.0344071 0.03923295 -0.028706212 -0.01415124 -0.055250734 -0.02246988
-0.09337809 -0.11390308 -0.14210215 -0.09969217 -0.12795731 -0.10107887 -0.060492057 -0.06530699
-0.03522438 -0.042180184 -0.09036313 -0.06612673 -0.09821064 -0.10476163 -0.070299596 -0.07610098
-0.0979636 -0.043075528 0.022446474 -0.0129085835 -0.032534033 0.053654972 0.0140309315 -0.020551832
0.07971625 0.004448221 0.0066921613 -0.06327488 -0.12508121 -0.09783084 -0.06342493 -0.095876545
-0.05811704 0.0017720629 0.004710998 -0.0058329958 0.04201044 0.03681721 0.04129001 0.09986238
0.065442815 0.027819078 0.06858027 0.024449322 -0.055912636 -0.03142741 -0.090199225 -0.05267993
-0.08076736 -0.027597168 -0.101574294 -0.06843523 -0.071616925 -0.06622607 -0.0046173953 -0.06783257
-0.07567969 -0.003910232 -0.067791 -0.04096334 0.018901793 0.008182458 -0.016864464 -0.006612404
-0.04580783 -0.05487682 -0.03074065 -0.04610917 -0.06307036 -0.052670628 -0.054552745 -0.028802468
0.041488554 0.04227048 -0.00076962693 0.011720526 0.023696687 0.05780738 0.035931125 0.047505345
-0.015557831 -0.07519561 -0.04336808 -0.0582076 -0.043373823 -0.03970198 -0.015353804 0.046564806
0.034717783 0.067033306 -0.020374903 -0.02278331 0.010766058 -0.013956463 -0.033587422 -0.018726489
-0.040031955 -0.023761254 -0.0069951746 -0.016303943 0.023207773 -0.005794892 -0.015569532 0.040656988
-0.004068584 0.031228013 0.020921849 0.038720865 0.040091295 0.050928336 0.021265728 0.07075234

fe2.bias f4 [64]
00000000: d982 29bd 729a 8e3c 1ab8 c0bb 5217 3c3d
00000010: 5939 d63c 362e 47bd d76d 78bc d098 29bc
00000020: 1962 b9bd 14cf 413d 8e27 82bd 58dc 0d3d
00000030: dfaa 083d 8d8e 3d3d 9fca 8dbc 6160 4b3d
00000040: 090a 0abd 1ecb 1f3d 909c 96bd b77d 813d
00000050: ab3f 053a 5a8e 13bd b58c 113d 2e77 a43c
00000060: fb4d 2f3c 9986 593d 76cf 573d d58d 9ebc
00000070: f191 1f3d 8e77 6f3c b533 963d db28 50bc
00000080: 4e77 c93c 819f 273d a24d 983c 4d39 4ebd
00000090: 55ff 3cbd 1052 68bc 4a27 ab3c 7aaf 0c3b
000000a0: bd82 e53c 8d9d d7bb 1d4d 753d d5f2 0f3d
000000b0: 7ee2 d23c b778 843c 6053 1bbc 6ac8 003d
000000c0: 7097 223d a508 45bc 758b 42bc 3030 953c
000000d0: 9225 1a3d 63cc 2dbc 287f 97ba ac66 4fbd
000000e0: d7f2 0e3c 8151 513d dc15 02bd b833 2a3c
000000f0: 76b4 a53c b3e8 ff3c c62a 5b3d d42d 013d
-0.04138455 0.01740763 -0.0058813216 0.045920677 0.026150392 -0.048628055 -0.015162907 -0.010351375
-0.09051914 0.047316626 -0.06355201 0.034633964 0.03336608 0.046278525 -0.017308531 0.04965246
-0.033700977 0.039012067 -0.07354081 0.06322806 0.00050830346 -0.03602443 0.03553458 0.02007636
0.010699744 0.053106878 0.052688085 -0.01935474 0.03895754 0.014615906 0.07334081 -0.012705053
0.024593022 0.0409236 0.018591706 -0.050347615 -0.04614194 -0.0141797215 0.020892758 0.0021466897
0.028016442 -0.006580061 0.059887994 0.035143692 0.025742766 0.016170843 -0.009480327 0.03144113
0.039695203 -0.012025987 -0.011874069 0.018211454 0.037633486 -0.010607812 -0.0011558281 -0.050635025
0.00872489 0.05110312 -0.031759128 0.010388307 0.020227652 0.03123889 0.05350759 0.031537846

sAtt_1.weight f4 [64, 64, 1, 1]
00000000: 6441 b4bc ba2d d73d 2b27 a7bc 7aba 713c
00000010: 8a4f 173e 41d8 8a3b 0b24 1c3d 52c2 86bc
00000020: 67ad a0ba f927 453d ff6d 98bd 1744 ce3b
00000030: 0adf 81bc d7fe fbbc 1708 2d3d 568f 263d
00000040: 1ca0 573c e386 3d3b a406 c8bd cd31 a33c
00000050: cbb7 0bbd 9f4f febc a956 233d dd85 2d3b
00000060: 1b69 94bd 95b8 ca3b fac4 403a c081 5d3c
00000070: 91cf f6bb ce40 09be b9b8 343d 95cf 36bc
00000080: 0220 9abc e602 9ebd ac8f 83bd 1715 71bd
00000090: d935 683c 6972 05bd 9422 d73d 3006 c63b
000000a0: 1bc8 e83c f986 1c3c 1aef 04be eeb6 7cbc
000000b0: 6819 2b3d 4eb4 27bd f10b 07bd ad36 13be
000000c0: 0ce3 b63c 7213 da3b 5c05 44bd 016d 583e
000000d0: a0a5 2c3e ef08 ba3d d765 8dbc ee41 d73c
000000e0: 55c7 abbc 5b51 1e3d f315 10bd 83c0 8d3c
000000f0: 5557 0b3e 3c2e 9cbd bf14 86bd 6cc3 9cbe
00000100: 8b19 d5bd 12e2 fe3a bb9b 153c 3e84 a2bd
00000110: c7bd 613d 781e c93c 099b 11bc 2228 a0bc
00000120: 2fb2 813d b79d 17be 78ff 063d 4565 3a3c
00000130: ec6a cebc 6279 a53c 082c 753d 35d4 3dbd
00000140: 0a1d 1c3d 7b4e 9bbd 5800 3d3b 5991 b0bc
00000150: 26bf f5bc aa73 153d 15e6 343c 1175 8dbc
00000160: 4138 3cbb 1e86 913d 879c a63d 95b7 b83b
00000170: e9d2 02bd 144d 02bc 36fc 00be 8a72 b9bc
00000180: 0c85 9abb 23f9 a2bc 2988 843d 5a90 0f3c
00000190: e2aa 303c 878f f2bc 11a2 0cbd 5eb2 9e3c
000001a0: 5159 74bc d548 283c 0e09 b0bb 16b8 e7bd
000001b0: 3830 16bd 71f7 b03c 8a40 e63c 191b ebbc
000001c0: ee08 c4bd 876f 833c e4b3 16bd 7975 fc3c
000001d0: 74ac 953d 7515 b0bb ada8 843d 0494 f73c
000001e0: 5881 51bc 3de2 cebd 031a e0ba c862 27bc
000001f0: 9ce0 013d 3707 173d dbc3 083d ac69 9e3c
00000200: de98 0dbd 5d0e 6dbc 3d2d 01bc b64a ea3b
00000210: 42cd ba3d 9657 75bd f340 87bd 9289 173c
00000220: 0fad 2cbd 9e3e 3dbc 39c8 2fbd c61d 4d3c
00000230: 9c33 033d b0e9 f3bc 7967 a1bc 08e5 1f3d
00000240: 4bf6 55bd c631 c23b 9058 d3bd 9566 193d
00000250: 6397 2fbb 05ab acbc 6257 47bc 2c01 9e3c
00000260: a6f9 4f3d 7e5b fdbb 8673 b53d 7841 c33c
00000270: 283c bd3c 999a fbbc 620c 623c b4a4 26bc
00000280: e827 d1bc 5a1e fa3c c842 4abc 52e2 1dbd
00000290: 3299 64bd b3c0 d03b 0998 563d 8db0 3dbb
000002a0: bf57 a53c fe3d ac3c 7baf 47bd 1d0f 11bd
000002b0: 98a6 f0bc 2336 143c 56ce ac3c 1d0e 43bc
000002c0: d039 723d 6a29 8abd a21e 0e3d c76d ea3c
000002d0: 6d9a c13d e1b5 d3bc 8163 e43c f1c6 a0bd
000002e0: 4b49 aabc cabb 113d 6885 7bbd 38c3 de3c
000002f0: 1c23 8cbc 9483 153d f8d9 eb3c 8c21 7e3a
00000300: df37 b2bd 30c3 e7bb 42f8 f33b 4c76 6cbd
00000310: 3ac4 c33d 6a91 d4bb d61f fdbc e1d3 773c
00000320: 8595 c23c 2eb8 d2bd 4151 e9bc e6ca 2f3d
00000330: d928 fc3c 59ad 8b3d 2a3c 763d 3365 89bc
00000340: 2ff3 ea3b a723 79bd 9d69 3fbd dddb 0e3d
00000350: 77f5 3d3d 3e03 fd3c b0bf 2a3d de9b f2bb
00000360: 0154 e33c 0e06 123e 56aa 2a3e 4b04 f43c
00000370: d5bb c63c 64a1 89bc 8be7 90bd 2498 8bbc
00000380: 7a13 353d 2427 a9bd 2a06 cc3c 1446 943b
00000390: 627d 413c ef86 893c 63a4 e8bb db36 1cbc
000003a0: 1fdc 503c 00f4 753d 16e4 0d3d ef8f efbd
000003b0: be29 163c 49f7 aabb f6c2 313d b8f0 913c
000003c0: b581 5cbd c1fc 11bd bccb 353c 27ef 823b
000003d0: 50b3 a23d 841f 4dbd ffb6 e13d 1a22 e73a
000003e0: ef29 a13c 3be4 b4bd 8fea 88bd 185d 823b
000003f0: e6bd 5e3b 442e 663d eea5 6a3d 8b22 2e3d
-0.022003837 0.105067685 -0.020404419 0.014753932 0.14776435 0.0042372053 0.03812031 -0.016450081
-0.0012258709 0.048133824 -0.07442855 0.006294738 -0.015853424 -0.030761166 0.042244043 0.04066404
0.013160732 0.002891951 -0.097668916 0.019921208 -0.034110826 -0.031043826 0.039877567 0.0026477494
-0.0724661 0.0061865547 0.00073535705 0.013519704 -0.007532068 -0.13403627 0.044121478 -0.01115789
-0.01881409 -0.077153966 -0.064238876 -0.058858003 0.0141729945 -0.032579813 0.10504642 0.006043218
0.02841573 0.009553664 -0.12981835 -0.015424473 0.041772276 -0.040943436 -0.032970373 -0.14376326
0.022325061 0.00665515 -0.047856674 0.21135332 0.16860056 0.09083735 -0.017260475 0.026276555
-0.020969072 0.038651805 -0.035177182 0.01730371 0.13607533 -0.07626006 -0.06546926 -0.30617845
-0.104052626 0.0019446036 0.009131367 -0.079353794 0.055112626 0.024550661 -0.008887061 -0.019550387
0.06332814 -0.14806257 0.032958478 0.011376684 -0.025197469 0.020199481 0.059856445 -0.046344955
0.03811363 -0.07583328 0.0028839316 -0.021553682 -0.029998373 0.03648726 0.011041184 -0.017267736
-0.0028720053 0.07105659 0.08135324 0.005637119 -0.03193942 -0.007952947 -0.12596211 -0.022637624
-0.0047155675 -0.019894188 0.06471283 0.008762443 0.010782929 -0.029609455 -0.034334246 0.019372161
-0.014913873 0.010271271 -0.005372173 -0.113144085 -0.03666708 0.021602364 0.028106946 -0.028699445
-0.09572016 0.016044391 -0.03679265 0.030817734 0.073082834 -0.0053736516 0.06477485 0.030221947
-0.012787186 -0.10101745 -0.0017097596 -0.010216422 0.031708345 0.036872115 0.033389907 0.019337498
-0.034569614 -0.0144687565 -0.007884321 0.0071500195 0.09121181 -0.05989798 -0.06604185 0.009249108
-0.04215723 -0.011550574 -0.042915557 0.012519306 0.03203164 -0.029774517 -0.01970266 0.03903678
-0.052236836 0.0059263436 -0.10319626 0.037451345 -0.0026793114 -0.021077642 -0.01216683 0.019287668
0.050775193 -0.007731854 0.08859925 0.023834929 0.023099974 -0.030713366 0.013796898 -0.010171104
-0.025531724 0.03053205 -0.012345023 -0.038545914 -0.05581016 0.006370628 0.052391086 -0.0028944344
0.020183442 0.021025654 -0.048751336 -0.035414804 -0.029376313 0.00904611 0.021094482 -0.01190522
0.059137166 -0.0674618 0.034697182 0.028616799 0.094532825 -0.025843563 0.027879478 -0.07850445
-0.020786902 0.03557948 -0.061406523 0.027192697 -0.017106585 0.036502436 0.028790459 0.000969433
-0.08702063 -0.0070728287 0.007445366 -0.057730004 0.095589116 -0.0064870613 -0.03089897 0.015126199
0.023752937 -0.10289036 -0.028481128 0.04291811 0.030781196 0.06820173 0.06011597 -0.016771888
0.007170103 -0.060825016 -0.04673158 0.034877647 0.04637667 0.030885335 0.041686714 -0.0074038347
0.027750017 0.14260122 0.1666654 0.029787203 0.024259487 -0.01680059 -0.07075413 -0.01704032
0.044208027 -0.082594186 0.024905283 0.0045249555 0.011809679 0.016787974 -0.0070996745 -0.009534563
0.012747793 0.06004715 0.034641348 -0.11697375 0.009165226 -0.005217467 0.04339882 0.017814979
-0.053834636 -0.035641436 0.011095937 0.0039957943 0.079443574 -0.050078884 0.11021232 0.0017634064
0.019673316 -0.08832594 -0.066853635 0.003978383 0.00339877 0.056196466 0.05728715 0.04251341

sAtt_1.bias f4 [64]
00000000: 67ad 933d f164 d1bc b987 c03d de3d 4b3d
00000010: 75ab 8dbd 0301 00bd e97f cd3d ad7b a33d
00000020: bac4 693d 758e 513d a123 9abd 2532 66bd
00000030: eea1 8dbd 2e0d aa3d b54a 363d bfae c7bd
00000040: 99e2 083d 4472 c53d 3619 c63c a25d 4abc
00000050: feca 473d 8071 8b3b 1ecd 8dbd bb88 1ebd
00000060: cac4 d5bc f7ce 833d 3d9e e73c 2e73 bdbc
00000070: eeb5 94bd d265 f6bd 3b7d 8abd 0abd b13d
00000080: fb21 903b b048 6bbd 72fb f1bc b4d4 4ebc
00000090: 4c2f d0bd 3160 6a3d ce58 08bd 1af7 4fbd
000000a0: 09b5 84bd 6e1a 9e3d e37b ecbc 6fe9 b3bd
000000b0: 2c84 c93d 14c9 5dbd d561 76bd 91e4 343d
000000c0: 2df5 b23c 14df 25bd fee4 f8bd eccb 0f3c
000000d0: ea09 9dbd 91a8 0fbc e444 afbd b50d adbd
000000e0: e668 71bd f2bc aa3d d727 f3bc 095f 983d
000000f0: 533f d13b f1b5 063c e51c 68bc be85 f43c
0.07210808 -0.025560828 0.09400887 0.049619548 -0.069174685 -0.031250965 0.100341626 0.07982574
0.05707238 0.05116125 -0.07526327 -0.056200165 -0.06915651 0.08303295 0.04450484 -0.09750127
0.033419225 0.09640935 0.024181943 -0.012351425 0.048777573 0.0042554736 -0.069238886 -0.038704615
-0.026094813 0.0643596 0.028273696 -0.023126211 -0.07261263 -0.120311394 -0.06762167 0.086786345
0.004398582 -0.057442367 -0.029538844 -0.012623955 -0.10165271 0.05722064 -0.033287816 -0.050772764
-0.06479842 0.07719885 -0.028867668 -0.08784758 0.09839663 -0.05414684 -0.060151894 0.04416329
0.021845425 -0.040495947 -0.12153052 0.008776646 -0.076679066 -0.008768217 -0.08558062 -0.0844988
-0.05893793 0.0833682 -0.029682083 0.074400015 0.0063857227 0.008222089 -0.014167045 0.02984893

sAtt_2.weight f4 [64, 128, 1, 1]
00000000: 742c 16bd e9fd 71bc 707b b83c 323f 8dbc
00000010: 63ee 00be c8b8 f23c 1065 84bd 8436 4e3d
00000020: 7e66 6bbd c059 acbd 9d1e afbc 15e0 f33d
00000030: 3366 5b3d c519 f13c cb10 8abc 3818 b0bd
00000040: 343e e7bd 9d3a f23c 0d7e 3a3c 0887 343c
00000050: 1777 afbd c7c1 19be e98c b73b 27dc febc
00000060: 94b3 f33c 7d68 96bd dbd2 433d 5eee dc3d
00000070: e247 c1bd 4a97 603d 1261 92bd f46d 633d
00000080: 2a0c 59bc 8a53 a33b 3180 b2bb 562a 853d
00000090: 0e5e d93c 2ce9 a73c f2ba f7bb e0ac 98bc
000000a0: 328c 16be 4ee3 dd3c 13d5 b83c fa29 abba
000000b0: c665 debd abf8 8abd 8314 5e3c d550 2dbd
000000c0: 7a33 14bd ad88 273d 299c eabc 5148 c33d
000000d0: 850f 9c3c b173 5abb 89c7 02bd bfea 223d
000000e0: e7c3 86bd af75 cbbd c290 08bd 2af6 8c3d
000000f0: 8125 05bd ee6c 023d 2aeb 3fbc 26dd 0cbe
00000100: d0ad 6b3d 7d77 84bc c062 f53c 4678 b2bd
00000110: 69d3 66bd 4493 98bb 2897 c63b fb11 7f3d
00000120: 5562 3fbd 67ed a9bd 2401 183d 5d11 c63d
00000130: 4238 873d fb40 9c3d 7119 923d aac9 0bbc
00000140: de0a c3bd 8ba7 cd3d 0724 05bd c3a4 843d
00000150: 7a50 0bbd 4866 64bd 5de4 0f3d abe3 ebbc
00000160: b37f 963d 79d4 8c3d 54ac a1bc 9cdb dd3d
00000170: af7d cfbc a1a0 a33d e637 3dbd fb7d bb3d
00000180: 45a0 bdbc 73ac 733d 3c1f a3bd ff11 fa3b
00000190: 3ed8 92bc e735 05bd f8e4 ac3c 8dda 3e3d
000001a0: d1ee a1bd 0a94 023d c13e af3d b207 5b3d
000001b0: f275 3ebd c8a6 38bd ef10 973d bfb3 8abd
000001c0: 001a 06bc daa3 54bc 1ca9 603c 0fa1 a23d
000001d0: a9fe 25bd 5def b13d 4c0d b8bc 281c 1e3e
000001e0: c168 29bb acd7 5bbc e906 61bd 1f11 c13d
000001f0: 1a16 3e3d e102 52bd b6a7 243b a2a9 f2bd
00000200: 03ff 80bd 1d75 15bd 6afd bc3b 5aeb 5dbd
00000210: ae7e 27be dce2 1b3b 4cfa 65bd 5cd0 b3bc
00000220: 43ff f0bc 3783 9dbd b545 963c c01f 41bc
00000230: ffd6 f1bb 7a50 98bd 473f d6bd f8f9 95bd
00000240: 2f2b 6abd 99d6 63bd b76d 2cbd d7f9 22bd
00000250: 8dcc 1dbd 667e cebd 5404 6ebd 96e7 c3bd
00000260: f4f3 b63c 8fec d6bd 9682 a4bd 4164 ffbc
00000270: 7aef 8bbd b6bc 153d 99a2 3ebe 3bf4 83bd
00000280: dca0 b9bd 405c 543c 75bb cfbd cc73 51bd
00000290: 2a4c f6bc 7718 b6bd 6567 13bd 0865 253b
000002a0: 070a cfbd 0d7b 03bd d0fd 0bbd f4dd 0b3c
000002b0: c554 3bbc a2ea 3abd 2142 813c fb8d 99bd
000002c0: 96c7 98bd 595d 8c3d d8cc 0dbd f887 71bd
000002d0: cbe4 9ebc ae5a 583d 08e4 95bd 7f36 4ebc
000002e0: 912c 8bbd 6fdf fcbc 6d24 02be cec8 84bd
000002f0: 0801 e2bd bf2a cfbd 58bf 3bbc 57c3 0fbe
00000300: a103 e13d c5f4 1f3d 9989 b93c c6d4 173d
00000310: 22c9 9ebc df92 413d d864 473d 5eb7 1d3d
00000320: 297b 7abc 984b 6b3d 0e25 823d e716 743b
00000330: ac7c 3cbc 5084 923d d261 873d 95a2 b3bc
00000340: c1ab 9e3d 9370 333d fd95 dfbc 8164 203d
00000350: 9efe 983b 0df3 263c 6724 3e3b 11d3 ed3c
00000360: 4fcd 9f3c 7270 033e 1043 693d 4c7d 8fbb
00000370: 865c 88bc b5b4 e0bc f082 2e3c cfc6 9d3b
00000380: a87f 5d3c 4f86 8a3d 0c85 57bc 5f41 3c3c
00000390: 254b fabc 09cb ac3d c794 c83c 9551 dd3b
000003a0: 6541 8b3b 21c0 d93c 9d1b 663c 1e51 3a3d
000003b0: 866b df3c b6bb 8c3d 9ea2 e03c eef8 453d
000003c0: c645 afbd 8226 833d adf5 973c 870f 27bd
000003d0: f334 213d 8d29 6e3d 3939 1bbc a05d 1b3d
000003e0: efab 323d 4020 e73c 079e 48bc deee 94bc
000003f0: b4a0 e43c 5c03 7e3c 19dc b53c acf1 833d
-0.036663488 -0.01477001 0.022519797 -0.017242048 -0.12590937 0.029629126 -0.06464589 0.05034496
-0.05747079 -0.08415556 -0.021376902 0.11907975 0.05356426 0.029431233 -0.01685371 -0.08598369
-0.11291161 0.029568965 0.011382592 0.011018522 -0.085676365 -0.15015326 0.0056015146 -0.031110836
0.029748715 -0.07344148 0.04780851 0.107876524 -0.09437539 0.05483178 -0.07147421 0.05552478
-0.013247529 0.004984324 -0.0054474105 0.065022156 0.026534107 0.020496927 -0.0075601274 -0.01863712
-0.14701918 0.027085926 0.02256254 -0.0013058775 -0.108592555 -0.06785711 0.013554695 -0.042313416
-0.036181904 0.04090183 -0.028638916 0.09535278 0.019050369 -0.0033333118 -0.031928573 0.039774653
-0.06580334 -0.09934556 -0.033341177 0.068828896 -0.03250647 0.031842165 -0.011713782 -0.13756236
0.057538807 -0.016170258 0.029954314 -0.087143466 -0.05635396 -0.0046562273 0.0060604997 0.062273007
-0.046724636 -0.08297234 0.037110463 0.096712805 0.06602527 0.076295815 0.07133759 -0.008531967
-0.09523557 0.10041722 -0.03250506 0.06476738 -0.034012295 -0.055761606 0.035129894 -0.028795084
0.073485754 0.068764634 -0.019735493 0.10832903 -0.025328485 0.07989622 -0.046195887 0.09154888
-0.023147712 0.059490632 -0.07964942 0.00763154 -0.017925378 -0.03252211 0.021105275 0.046595145
-0.07906879 0.031879462 0.08556891 0.053474136 -0.0464992 -0.04508093 0.07376277 -0.06772565
-0.00818491 -0.012978518 0.013712194 0.07940876 -0.040526066 0.08688233 -0.022467278 0.15440428
-0.0025849792 -0.013418119 -0.05493823 0.09427094 0.046407796 -0.051272277 0.0025124378 -0.11848761
-0.062986396 -0.03648864 0.005767514 -0.054179527 -0.16356918 0.0023786342 -0.056146905 -0.02194994
-0.029418593 -0.07691043 0.018343786 -0.011787355 -0.007380366 -0.07437225 -0.10461288 -0.073230684
-0.05717009 -0.05562458 -0.04209682 -0.039789047 -0.038525153 -0.10082702 -0.058109596 -0.09565656
0.022333123 -0.10494339 -0.0803272 -0.031175734 -0.06832786 0.036556922 -0.18616714 -0.06443068
-0.090638846 0.012961447 -0.101431765 -0.051135823 -0.030065615 -0.08891385 -0.035987277 0.0025237221
-0.101093344 -0.032099772 -0.0341776 0.0085368045 -0.011433785 -0.04563392 0.015778603 -0.07497784
-0.07459943 0.06853742 -0.034619182 -0.05896756 -0.019396206 0.052820854 -0.07318884 -0.012586235
-0.0679561 -0.03086826 -0.12709208 -0.06483613 -0.11035353 -0.10115575 -0.011459194 -0.1403936
0.1098702 0.03905179 0.02264862 0.03706815 -0.019383017 0.047259208 0.048680156 0.03850495
-0.015288153 0.05744514 0.06354724 0.0037245096 -0.0115043335 0.07154143 0.066104546 -0.021928111
0.07747603 0.04380853 -0.0272932 0.039158348 0.0046690246 0.010189784 0.0029013397 0.029031308
0.019507078 0.12835863 0.05694872 -0.00437895 -0.016645681 -0.027429918 0.010651335 0.0048149596
0.013519205 0.067638986 -0.013154279 0.011490195 -0.03055341 0.084371634 0.024485005 0.00675411
0.004249739 0.026580872 0.014044669 0.045487516 0.02727295 0.068717405 0.027421292 0.0483331
-0.0855823 0.06403829 0.018549765 -0.040786292 0.039357137 0.058145095 -0.009474092 0.037931085
0.043621 0.02821362 -0.012244708 -0.018180307 0.02790866 0.015503731 0.022199677 0.064425796

sAtt_2.bias f4 [64]
00000000: aaf8 65bd 45fc a93d f970 63bc 5560 9f3d
00000010: 2ad4 113d 920f 833d 94c8 803d 906e 94bc
00000020: 862f 03bd 1ae4 5cbd 1286 753c cb05 6ebd
00000030: dbc8 f9bc b21d 8b3d cca1 013d 9153 bc3d
00000040: 9338 b8bc 57dd 25bc 3c33 34bc 90d6 153d
00000050: e5ca 28bd c764 d83c 2dfe 2cbc 4ced 88bd
00000060: f4d6 98bd 0fe6 81bd b56e 17bc ea3a 5a3d
00000070: 13b5 bc3d f94d dc3c 2dc1 3b3c 9ea4 953d
00000080: f6ec 723d 5019 b23d 659a 89bd aa9b 61bd
00000090: 67dc 14bd 6d73 733d cd77 b0bd 53c6 ac3d
000000a0: 0020 cf3d 28e0 12bd 838c a8bd 7e71 4a3d
000000b0: 49d7 9cbc 5035 553d 9466 943d dccf 82bd
000000c0: 4939 ca3c 462f ef3d 7989 883d c014 983d
000000d0: af13 b0bd 2d5d 703d b903 13bd ae58 d43d
000000e0: 6ade 82bd e4c2 0d3d b56e 2bbd 2753 973d
000000f0: 6f27 71bd b893 8cbc e65e 83bd c6da afbc
-0.056145348 0.0830007 -0.013881915 0.07782046 0.035602726 0.06399454 0.06288257 -0.018119127
-0.032027744 -0.053928472 0.014985578 -0.058110993 -0.030491283 0.06792773 0.031648442 0.091956265
-0.022487914 -0.010123572 -0.010998543 0.036581576 -0.04120912 0.026415242 -0.010558647 -0.06685886
-0.07462874 -0.06342708 -0.009242703 0.05327884 0.09214225 0.026892649 0.011459631 0.07306789
0.059308015 0.08696234 -0.067189015 -0.055080093 -0.036343005 0.05943625 -0.086166 0.08436265
0.101135254 -0.035858303 -0.082299255 0.04942464 -0.019145625 0.052052796 0.07246128 -0.06387302
0.024685519 0.116789386 0.06666846 0.07425833 -0.08597504 0.05868261 -0.035892222 0.10368477
-0.06390078 0.03460969 -0.041853625 0.07388907 -0.058875497 -0.017160282 -0.06414585 -0.021466624

sAtt_3.weight f4 [64, 64, 3, 3]
00000000: a45a 0a3d 8e81 583c 9bde 2d3b c028 1b39
00000010: c9cd 383c d0bd 423c 1838 b43c 24a3 babc
00000020: 8017 c0ba 1915 e7bb 2a10 49bc 947b 33bb
00000030: f4b1 40bb 3d04 a53c d331 d13b fde6 36bc
00000040: c1ec 323c 2b27 51bb 0199 ec3c d47b d1bb
00000050: ebbe 9e3a d690 14bd 78d1 d8bc 8b81 e93c
00000060: 4fba 1bbc bdff 63bc 74de 42bc 697b 56ba
00000070: a8a9 0d3c 45b3 ac3c 6e42 463c 4e50 863b
00000080: 180a 8c3c 82e5 1c3b d25a e23c 4d69 8d3c
00000090: b410 5b3b 87f1 44bb 06b9 9b3c e09d 563c
000000a0: 2446 8abc 909e 353c dddb 8cb9 e66c d83b
000000b0: 5899 b53c 9f53 133d 6e7b cb3c 9e99 4eb9
000000c0: 0229 173d 25e4 9ebc 24f0 d2bb 659d 673a
000000d0: c546 11bd 265e 88bc 091e d63b 675d 963c
000000e0: f806 d5bc e9d6 df3c d550 cebc d66a 8fbc
000000f0: 674e 16bc e0c7 22bd 5931 2e3c 8e12 75bb
00000100: 7bad 0bbc c1c6 a4bc 6582 5a3d ee7c 7b3c
00000110: 1714 fdbc 1c35 753c 991f 94bc e0b3 5abc
00000120: 2b86 0f3b 9257 04bc 0acc d8bc 52dd 593c
00000130: 20de 7d3c a906 9a3c 0006 c73c edfc 91bc
00000140: c430 963c d9df 0cbd 8f21 b13c 6555 523d
00000150: 2ec3 b03c a914 d03c 9f12 04bd aa9d f5ba
00000160: 59c1 1a3d b849 a1bc 76c0 85bb 53b1 babc
00000170: 1f9c 813c e479 873b 9bac dd3c 4418 c23c
00000180: 7ed8 c03b 746a 413b 1d3f b33b 9b8b aa3a
00000190: 7ff5 003c 501a bbbc d290 80ba bd9b ad3c
000001a0: c377 fa3b 0d0b c0bc ef96 30bc 133f 1a3c
000001b0: 89e4 2138 f2f2 29bc 32e1 8c3c 657e 503c
000001c0: 9b20 fa3c 452b 05bd c4d5 02bd 429f a6bc
000001d0: f00f ea3b ef25 3ebc ee62 5bbb 1cea 2dbb
000001e0: f2a0 13bc e99d 1f3c e9ec 20bc b073 babc
000001f0: 49d2 1ebd 39d7 b739 dbca 113c cee0 433c
00000200: 873c 453d ab1d ef3c 5e9f 0ebb e503 e1bb
00000210: d48a f73b 2681 323b 33ae 3cbc ab57 543c
00000220: 5da1 563c 4e7c 753c ea10 ab3c d9b8 38bd
00000230: 8abf 2bbb d217 d43c e619 333b 7828 a83b
00000240: 5319 21ba 5da4 1dbb 8eb7 33bc f05e b1bb
00000250: c099 dfbc bb62 55bd 496f 993c 9cee 733c
00000260: 3d39 dabc 292f 133c 6bdd 2f3c 18ad 323c
00000270: e774 a63b 49e1 4cbb 4ea7 03bd ab39 31bc
00000280: 8d56 b4bb d8b9 5eba 61a5 0f3d db29 3c3c
00000290: 2174 3bbb 256f 77bb f5c5 49b9 a667 b9bb
000002a0: 5054 81bc 49e0 95bc b2ad 753c f064 cf3c
000002b0: 5cdf 58bc eb4f cbbc 6936 00bb f30e ad3c
000002c0: 4e2b 6bba 627a 063d 4510 10bd c2c5 bf3b
000002d0: 0975 6cbb 5e23 a8bc fcd6 a23c 977e 633c
000002e0: 2328 02bd 51af 87bc d646 173c e23e e73b
000002f0: 6e06 a4bc c1b0 d43b 6009 0a3d 8cd4 d23c
00000300: afa5 fbbb f572 4abc 0011 083b 29a2 2dbc
00000310: 0c05 d23c 49fe 7b3b f791 83bc 5e6e 1b3a
00000320: c999 0bbd 1b1d c1bb f08c 9c3c a414 363a
00000330: 7d17 2e3a c0ee ca3c efee 653c 7d21 a13c
00000340: 18d4 c6ba 4f11 933c f5e1 05bc cb2d 0abc
00000350: be5d d7bb 475b bcbc 4bc7 9fbb 4d2f c43c
00000360: 8bb5 16bc 2a9d 3a3c 6470 c5bd 7c5d d83c
00000370: 30ca 18bc d70c 31bc 501e 14bd 2935 fabc
00000380: 0231 6438 670c ca3a 3079 9d3c 5735 603b
00000390: dbf2 59bc e565 8f3c 7384 7ebc 12c4 d4bc
000003a0: f2e6 bc3c 8fdc 67bc f49e 82bc f8bd 583c
000003b0: b2a9 b43c 0c26 72bb 9057 c2bc be9d 2f3b
000003c0: 4593 6a3b 33ee a8bc 1980 a4bc 903a 403b
000003d0: e789 ab39 8f25 9bbc 4981 62bc a298 9abc
000003e0: 0494 913c b26b 773c 36d3 8abc 331e 573c
000003f0: 50ae a7bc 83e7 77bc 93f5 b53c ee54 34bb
0.033777848 0.013214482 0.0026530388 0.00014797132 0.011279532 0.011886075 0.021999404 -0.02278287
-0.0014655441 -0.0070520756 -0.01227192 -0.002738689 -0.0029402943 0.020143623 0.0063841133 -0.01116347
0.010920704 -0.0031914215 0.028881552 -0.0063929353 0.0012111341 -0.03627094 -0.02646707 0.028504154
-0.009504869 -0.013915953 -0.011893857 -0.00081818417 0.008646406 0.021081576 0.012100799 0.0040989285
0.017094657 0.0023940508 0.027631197 0.017262125 0.0033426704 -0.0030051188 0.019009124 0.013099164
-0.016879149 0.0110851675 -0.00026866692 0.0066047786 0.022167847 0.03596842 0.02483913 -0.00019702918
0.036904342 -0.019395897 -0.0064373184 0.00088354043 -0.03546788 -0.016646456 0.006534342 0.018355085
-0.0260043 0.027324157 -0.025185028 -0.017506998 -0.009173966 -0.039741397 0.010631883 -0.0037395093
-0.008525248 -0.020114304 0.05334701 0.01534961 -0.030893369 0.014966276 -0.018081473 -0.01334855
0.0021900039 -0.008077519 -0.02646448 0.013297396 0.015494853 0.018802004 0.024294853 -0.0178208
0.0183338 -0.034393165 0.021622447 0.05135097 0.021577444 0.025400477 -0.03224432 -0.0018739004
0.037782047 -0.019688472 -0.004081781 -0.022789633 0.015821515 0.0041344035 0.027059844 0.023693211
0.005885183 0.0029512914 0.00547017 0.0013011576 0.007871031 -0.022839695 -0.0009808785 0.021192426
0.0076436712 -0.02344277 -0.010778173 0.009414452 3.859823e-05 -0.010372864 0.017197225 0.012725447
0.030533126 -0.03251197 -0.031942144 -0.020339612 0.007143013 -0.011605724 -0.0033475715 -0.0026537245
-0.00901054 0.009742239 -0.009822109 -0.022760242 -0.038774762 0.00035064833 0.008898462 0.011955453
0.048153426 0.029188951 -0.002176247 -0.0068669193 0.0075543914 0.0027237623 -0.011516142 0.012960355
0.013099995 0.01498325 0.020882089 -0.04509816 -0.0026206695 0.025890265 0.002732867 0.0051317774
-0.0006145436 -0.0024054267 -0.010969056 -0.0054129288 -0.027294993 -0.05209611 0.018729823 0.014888432
-0.026638621 0.008983412 0.0107339425 0.010905527 0.005079854 -0.003126221 -0.032141976 -0.010816972
-0.0055034817 -0.0008496321 0.035069827 0.0114845885 -0.0028603154 -0.0037755456 -0.00019242599 -0.005658108
-0.015787274 -0.018295424 0.0149950255 0.025316685 -0.013236847 -0.024818381 -0.001956368 0.021125292
-0.00089709915 0.032831557 -0.035171766 0.005852432 -0.00360805 -0.020524677 0.019877903 0.013885162
-0.03177656 -0.01656309 0.009233197 0.0070570568 -0.020022597 0.0064907973 0.033700347 0.025736116
-0.007679663 -0.012356509 0.0020762086 -0.010597744 0.025637172 0.0038451126 -0.016060812 0.0005929227
-0.034082208 -0.005893362 0.019110173 0.0006945825 0.0006641073 0.024772048 0.014034017 0.019669289
-0.001516941 0.01795259 -0.008171548 -0.008433769 -0.0065724542 -0.022992743 -0.0048760525 0.023948336
-0.009198557 0.01139001 -0.096405774 0.026411764 -0.009325549 -0.010806284 -0.03616172 -0.030542927
5.4405078e-05 0.0015415073 0.019222826 0.003421148 -0.01330253 0.017504642 -0.015534508 -0.0259724
0.023059342 -0.014151706 -0.015944935 0.013228886 0.022053573 -0.0036948947 -0.023723394 0.0026796903
0.0035793346 -0.020621395 -0.020080613 0.002933178 0.00032718407 -0.018938808 -0.013824769 -0.01887161
0.017770775 0.01510136 -0.016946416 0.013129759 -0.02046886 -0.01513088 0.022211825 -0.0027516442

sAtt_3.bias f4 [64]
00000000: 073a 1c3d 28ff f1bb 8cc8 093c 20b9 61bc
00000010: 16f0 47bc 168c 02bd 2049 533c e0ab 2bbc
00000020: 4094 56bb 53f5 1bbd 329f fb3c e62d 87bc
00000030: 9cb6 0c3c c624 893c 7c4d 753c e1cb 273d
00000040: d0c1 2bbc e282 c83c 2812 eebb d27c 9c3c
00000050: 3188 053d 7805 19bd cf04 2a3d f0f6 8b3c
00000060: e0e2 c03a 2466 00bd 8df0 153d 4876 bebc
00000070: c031 0fba dd99 0a3d 4c56 7cbc 7b8f fbbc
00000080: 2e18 d5bc 3a50 a33c 0025 bbbc 102b 9f3c
00000090: d222 01bd aba5 a0bc f0b0 9abc 4813 dfbb
000000a0: 8769 233d 833d b8bc 801f ffba 4c8e 17bd
000000b0: 0874 ffbc 6855 af3b f0c2 1a3c c251 f83c
000000c0: a470 6c3c 007f 55b9 eaeb 13bd d3c9 89bc
000000d0: b40a 133c 1977 213d d40e 443c 16f6 8bbc
000000e0: 5b56 cdbc c2a6 fa3c 9c74 1abd dace f03c
000000f0: dc18 5ebc 5e15 bbbc 4e1c 8bbc 5982 0b3d
0.038141277 -0.0073851533 0.0084096305 -0.013777047 -0.012203237 -0.031871878 0.012895852 -0.01047799
-0.0032742172 -0.038075756 0.030715559 -0.016501378 0.008588459 0.016741168 0.014972087 0.04096592
-0.01048322 0.024476472 -0.007265348 0.019102488 0.032600585 -0.03735873 0.041508492 0.017085522
0.0014716052 -0.03134741 0.03660636 -0.02324976 -0.00054624304 0.03383814 -0.015401434 -0.030708065
-0.026012506 0.019935716 -0.022844791 0.019429713 -0.031527348 -0.019610247 -0.018883198 -0.0068077184
0.03989556 -0.022490269 -0.0019464344 -0.03700094 -0.031183258 0.0053507574 0.009445891 0.030312423
0.0144311525 -0.00020360574 -0.036113657 -0.01681987 0.00897472 0.03942022 0.011966426 -0.017085116
-0.025065592 0.030597094 -0.037708864 0.02939551 -0.013555732 -0.022837337 -0.01698127 0.034059856

sAtt_4.weight f4 [64, 64, 1, 1]
00000000: 9d52 65bc aaad c1bb 19e3 0e3d ec57 55ba
00000010: b3dc 3abb ae3d d8bb be87 cb3c b735 f0bc
00000020: 7d63 133d ce8d 983c aa97 e3bb 4bed 1f3c
00000030: 74c3 a9ba a0eb 22bc 3bbf e9bc 7404 943c
00000040: d9a2 1f3d fea5 2dbd 9987 82bb efe4 70bb
00000050: 248e 463a f846 823c 26bc 49bc 2fe1 143d
00000060: 8a3d a33c cbd9 8d3b bc1a c0bc 79c5 c4ba
00000070: 8a55 63bd 0161 e83b 7994 943c c28a 98bc
00000080: c019 623c f4a7 513c 6456 323b 11a4 933c
00000090: 2372 063d 8b2d 173a aec0 403c 2775 133c
000000a0: f011 bd3c 97b2 323c 66f1 4abc bcfd a43c
000000b0: eb2b a33c 8607 3f39 25d8 c6bb 2ba9 64bc
000000c0: 3812 253c 1d50 71bb 90ff 053b a9a5 423c
000000d0: edad 8bbb 2f87 9ebc a142 6d3d 44d0 183d
000000e0: afa0 d03c 7eaf fc3b 4eb5 473c 66b2 783c
000000f0: fdf6 ffbb 07b9 89bc b62f 11bc cf5e 44bc
00000100: dea3 95bc 996c 23bc 93d5 8db9 99fd a93b
00000110: d7ec 713c cb43 9fbc 1c14 ee3c 478e d73b
00000120: f936 043b 0b25 c7bc 4bac 6b3b 3206 f43c
00000130: 0bda 9cbc cfd3 7fbb 48e0 a2bb 5c2e 2bbb
00000140: 2e8a d93b 7ba4 f5ba 9fba 90bc 7292 1ebc
00000150: fea4 3cbd 4099 813c df63 92bc 45d8 fb3a
00000160: b6ca 2abd b85f 1e3c ee5e 483b 4ffd 0ebb
00000170: 5e33 163b 597b c9bb b96c 91ba 3494 87ba
00000180: a209 c73b f963 dabc 6d5a 283c f745 8f3a
00000190: 13ff 003c 9b76 6f3c 297d 5b3b 1776 4d3c
000001a0: 34d9 2e3c cee4 9bb8 3caa f43b 8613 873c
000001b0: 39e9 853d 8d7b 0dbc bc94 373c 001e 083d
000001c0: 5278 2bbc 0345 873c aa8e 403b 4590 433c
000001d0: bb0b 97bb 472d 59bc 5729 893c eea3 1bbb
000001e0: 6411 9bbc aac5 e0bb 3e7f 9f39 c7e5 3c3d
000001f0: c576 4d3b c8ec 92bb 948a 01bb ced9 613c
00000200: 0228 24bd 6fa4 8f3c 2677 92bc e277 0aba
00000210: b831 70bc 80a4 68bc dbf0 733c b47c 193b
00000220: 0d5c 8a3c d998 5abb 5284 b2bc 81e7 b8bb
00000230: 2584 efbb 3b43 c7bb 466a 6c3c b280 a1bb
00000240: b2c6 d0bb de6a 77bc 328a 883b 9479 4bbc
00000250: 46c9 8fbc 525d 453b 9631 8d3b 1425 83bc
00000260: 532f 5b3b 0be3 96bc ab31 04bc 6713 1f3c
00000270: 8c0f 733c 5452 ee3b 1def e9bc 60e4 173d
00000280: 3d6b 87bc 5e19 213d 8123 653c 3c45 a43c
00000290: 3fe9 8bbc 2c21 043d 5732 cfbc 2671 c6bc
000002a0: dba1 853c 3943 c0bb 8942 993b f6a4 013c
000002b0: 9d38 2e3b 819f b63c 824f 763c 2a15 b1bc
000002c0: d37d 54bb 48a2 88bc 8f6d 62bb a1d5 063c
000002d0: 7e6f 9dba 495a cabc 50f9 06bc 6cd6 773c
000002e0: 7833 2f3c b083 2d3c 6a51 a9bc 3e57 03bc
000002f0: 0d4a 09bc 3286 b03b 7c2a bd3c b215 273d
00000300: 6de0 04bc 1807 bd3b 89ec 8fbc 0925 63bc
00000310: 4e70 9e3c 479b 49bb fdee 94bb e2e3 b03c
00000320: 97d4 733c 89f2 3fbc 1758 77bb dc63 3c3b
00000330: 89d3 10bd 179f 3c3c 7a3e 053d b70c 1bbd
00000340: 3b35 b73c 78ce 4cbb 07c4 9cbb 92f2 a13b
00000350: 9dde 01bd 92bd 6d3b b23d e1bc a2e2 27bc
00000360: 8f4f c83a 2b0b 97bc c651 c23b cce6 58bd
00000370: 2606 b9bc 746c 5b3b f05b 28bc 1a79 06bc
00000380: a4a6 8dbb b47a e73b 2665 8e3a d796 813c
00000390: 7739 f5bc 1cdc c5bc 1779 aaba a496 853b
000003a0: 60be 1f3c 1cf3 373b c25c fdbc ef53 3a3c
000003b0: 0126 bcbc c746 ad3c 2918 823c 8513 2cbc
000003c0: fdb0 d5bb b03d bd3b 3414 8abc beb6 a63c
000003d0: a1e9 253d f9ad 97bb ff19 0d3c 9e56 873b
000003e0: efa9 febc b3e3 d5bc b7bf adbb cc09 f73c
000003f0: 678c 73bb 94b0 c03b 2a17 2d3c 9b21 a83b
-0.013996747 -0.005910595 0.034884546 -0.00081384066 -0.0028512895 -0.0065991497 0.024845 -0.029322488
0.03598355 0.018622305 -0.00694557 0.009761165 -0.0012951926 -0.009943873 -0.028533569 0.01806853
0.038973663 -0.04239463 -0.0039834497 -0.0036757549 0.0007574281 0.015902981 -0.0123129245 0.036347564
0.019926805 0.0043289415 -0.023450248 -0.0015012465 -0.0555015 0.007091642 0.018137204 -0.018620852
0.013800085 0.012796391 0.0027212137 0.018022569 0.032823693 0.00057669793 0.011764688 0.009000099
0.023079842 0.010906837 -0.012386655 0.020140521 0.019918403 0.00018217982 -0.006068247 -0.013956348
0.0100751445 -0.0036821433 0.0020446517 0.011880317 -0.004262677 -0.01935157 0.05792487 0.037307993
0.025467245 0.00771135 0.0121892225 0.015179252 -0.0078114257 -0.01681186 -0.008861473 -0.011985495
-0.018266615 -0.009974622 -0.0002705274 0.005187702 0.01476594 -0.019441506 0.029062323 0.00657824
0.0020174368 -0.024309656 0.003596085 0.02978811 -0.01914694 -0.003903616 -0.004970584 -0.0026120162
0.0066387868 -0.0018741036 -0.017667113 -0.00967847 -0.046055786 0.015820146 -0.017869888 0.0019214234
-0.041697226 0.009666376 0.003057416 -0.0021818464 0.00229188 -0.0061487374 -0.0011095024 -0.0010343851
0.0060741464 -0.026658999 0.010275465 0.0010930885 0.007873314 0.01461568 0.003349135 0.012540362
0.010671902 -7.433594e-05 0.0074665826 0.016488802 0.06538624 -0.008635414 0.011204895 0.033231735
-0.010465698 0.0165124 0.002938191 0.011936252 -0.0046095527 -0.013255424 0.016743345 -0.0023748833
-0.018929191 -0.006859501 0.00030421646 0.04611757 0.003135131 -0.004483793 -0.0019766437 0.013784839
-0.040077217 0.017534463 -0.01787908 -0.0005282146 -0.014660291 -0.014199376 0.014888967 0.0023420276
0.016889596 -0.0033355264 -0.02179161 -0.005642832 -0.007309454 -0.0060810125 0.014429634 -0.0049286718
-0.0063713426 -0.015101163 0.004166865 -0.012419123 -0.01755203 0.0030115438 0.0043088896 -0.016008891
0.0033444955 -0.01841881 -0.008068482 0.009709216 0.01483525 0.007272998 -0.0285564 0.03708303
-0.016530627 0.039330833 0.013985516 0.020052545 -0.017078994 0.032258198 -0.025292559 -0.024223875
0.01631253 -0.0058673886 0.004677121 0.007912865 0.0026584037 0.022292854 0.015033605 -0.021616537
-0.003242363 -0.016678944 -0.0034550165 0.008229644 -0.0012011377 -0.024701254 -0.008238152 0.015126806
0.010693423 0.010590479 -0.020668704 -0.008016406 -0.0083794715 0.005387091 0.023091547 0.040792175
-0.008110148 0.005768668 -0.017568843 -0.01386381 0.01934066 -0.0030762719 -0.004545091 0.021593038
0.014882228 -0.01171554 -0.0037741715 0.0028746044 -0.035357986 0.011512539 0.032530285 -0.037853923
0.02236425 -0.0031250995 -0.0047841105 0.0049422467 -0.03170644 0.0036276323 -0.027495239 -0.010246905
0.0015282499 -0.018437942 0.0059301583 -0.05295448 -0.02258594 0.003348139 -0.010275826 -0.008207584
-0.0043228436 0.007064188 0.0010863885 0.015818996 -0.029934628 -0.024152808 -0.0013006058 0.0040767957
0.009749979 0.0028068488 -0.03092802 0.01137255 -0.02296734 0.021151913 0.015880661 -0.010502701
-0.006521343 0.005775176 -0.016855337 0.02035081 0.04050601 -0.0046288935 0.008612155 0.0041301986
-0.03108689 -0.026109552 -0.005302395 0.030156039 -0.0037162544 0.0058804248 0.010564605 0.005130959

sAtt_4.bias f4 [64]
00000000: eed5 d7bd 0a28 b4bd 185f 28bd fcb4 e6bd
00000010: 50c6 b0bd 6043 41bc a68f bf3d 2e63 cf3d
00000020: 9cef 81bd 801a b3ba 7065 c2bc f8f5 f63d
00000030: 88f5 9bbc c61f d83d 8024 a03b 6030 9ebd
00000040: bc24 413d e037 263c bc64 62bd d41c f43d
00000050: 4c8b 94bd 402b ef3b dc19 dc3d 96ca fcbd
00000060: f41f 3dbd d040 3cbc 807d 5bbc 2a09 cc3d
00000070: 8ad5 893d 84db df3d 704d aa3c 8c14 19bd
00000080: 78c9 e5bc c81b 933d 7032 d73c 58bd 9d3d
00000090: b071 273d ea6b 893d 6c65 0abd a093 f63d
000000a0: 6a58 a4bd b6a9 a8bd 203d b7bd 2634 efbd
000000b0: c8d0 833d 00ff 92ba 1ae0 fcbd 2007 833b
000000c0: 7032 78bc 4e09 9f3d d858 a1bd f29e dcbd
000000d0: 3a92 b5bd 4a96 83bd b802 9bbc 203f f3bb
000000e0: c841 593d d82b 89bc 6abe ef3d 9442 c3bd
000000f0: beba c33d 34d0 4f3d 3a52 89bd 0009 28bb
-0.10538851 -0.08796699 -0.041106313 -0.11264989 -0.08631575 -0.011795849 0.09353571 0.10126339
-0.0634453 -0.0013664514 -0.02373001 0.120586336 -0.019037977 0.10552935 0.0048871636 -0.077240705
0.047154173 0.010145158 -0.05527185 0.11919561 -0.07253131 0.007298857 0.1074712 -0.12343328
-0.04617305 -0.011490062 -0.013396621 0.099626854 0.067301825 0.10930541 0.020788878 -0.03737311
-0.02805017 0.07183033 0.026269168 0.0770213 0.040879905 0.06710036 -0.03378813 0.12039876
-0.08024676 -0.08235495 -0.089472055 -0.116798684 0.06436306 -0.0011214912 -0.123474315 0.003998652
-0.015148744 0.077654466 -0.07878274 -0.10772504 -0.08865781 -0.0642515 -0.018922195 -0.0074232966
0.05304125 -0.01674454 0.117062405 -0.09534183 0.095571026 0.050735667 -0.067051366 -0.002564013
