checkpoints/A_1.pth (torch, 840873 bytes, 20 tensors)

fe1.weight f4 [64, 3, 3, 3]
00000000: d123 7fbb b9bc f7b9 94db 14bd 4744 8ebc
00000010: 31fc 49bd 7b6d 12bd 8972 c3bc fa77 63bd
00000020: 6898 51bd ee25 473d fb68 39bd 2b21 15bc
00000030: 977b d13c 30d8 1b3b 075a 133c 675e 893d
00000040: a2c9 0c3d 4153 1f3c 7393 0c3c 38d0 e83c
00000050: 741a d43c 646c fc3c 4b1d 9bbc 669f 7bbc
00000060: da04 683d 5127 3b3d 5412 0c3c dcde 163d
00000070: db40 d03c d912 453d 4298 e13c 77cf f83c
00000080: 37fd 663d c7a7 edbb 0115 b3bb d831 9f3c
00000090: 48bb e63b 2597 0b3d 8252 633d afab 93bc
000000a0: 113b 233c a119 953d 9a95 293c b3da 12bc
000000b0: 221c 0f3d 6d89 e23a a189 b33c cf1d 5c3b
000000c0: cf2a da3c 6db9 6abd 7733 e13c 4a81 20bb
000000d0: 6c0b acbc eafa a3bb 360b af3b f3c3 883d
000000e0: a42d 103d e735 d7bc b891 453d 5641 4b3d
000000f0: fc56 7a3d 06d9 093d f94f 583d 292e fa3b
00000100: dad5 8c3c 9dbd 833c ec3b 8cbc c60d 9a3c
00000110: da2c 823c 0493 953d 7e4a d5bc 8201 533c
00000120: 562d 5fbd 3f7f bd3b a74a d73c 38c1 bebc
00000130: ba32 843b 1567 5f3d b717 093c 715a 7b3c
00000140: 60f5 d03a a960 3dbd a4d9 48bd 8e50 5abb
00000150: 10e6 c6bd 2b9e 39bb 8cc1 42bc 7c0e f5bc
00000160: d84e 6b3c 05b0 a73c d3b1 7cbd 339a 37bd
00000170: d1c9 46bd 565b a1bd 56e4 23bd ce5b bcbc
00000180: 8af0 87bd 8c73 abbd fc78 ebbc 6014 96bd
00000190: 6705 963b d9cb a1bc c148 a0bd cbb6 9cbc
000001a0: 285f 63bc ffcf 0abd 9fab 15bd d7cd 2ebc
000001b0: f171 863c 2645 683c d43e f73c a249 863c
000001c0: dc12 103d 7e24 0e3d 3fd0 013a 62be 8dbc
000001d0: 8829 353c 4230 033d 97d1 e13c 74a7 f63c
000001e0: 9326 d43a 8fbe 95bb 0513 cd3c d4bb 053d
000001f0: 1b75 70bc 0816 3a3d 82d7 f53b df3e cbbc
00000200: 4fce 68bc 23aa 0b3c e76a 92bc 667c 8bbc
00000210: 10a1 263d 4fa1 1b3d d68e 7c3c 036d 4ebc
00000220: 52af 433c 69e6 ecbc 20cc b3bc 0f46 d2bb
00000230: efca 473b 08a4 38bd e03e 85bc 9f82 0cbc
00000240: ca30 eabc 0214 d53c aa35 7c3a a52a a13c
00000250: bd1d 273a 6da3 2dbc e6cf f0bc 72ea c5bc
00000260: d1e6 5dbc ec9e 5abc 68e1 34bd 3f0f ae3b
00000270: aa71 bbbc f412 ddbc 855b 14bd 5341 a4bb
00000280: 48dc 14ba 79c4 32bd 0bc0 3bbb 7340 5d3c
00000290: 2229 8dbb e8b2 233d a5f0 e03c 7c1c d33c
000002a0: e615 1f3d ce9b 663d 35eb c83d 8a35 3abd
000002b0: 4681 02bd bce8 763c 6882 bf3a 13e1 d33b
000002c0: dd15 f33b e4f4 a73c e70e 563d fc90 6c3d
000002d0: 962f 7fbd 743c d1bc 0792 47bb b578 d6bc
000002e0: b1a2 e2bc c9e9 983c 979a 3cbc 472f fb3c
000002f0: 6b87 da3c d3b6 8e3a 513e 663c 70f6 05bc
00000300: eba8 2bbc 64ff b2bc 0cce 003b 11ad 20bc
00000310: c7de 2b3b fc71 9cbc f5ea 0e3d 9580 273d
00000320: b3d3 303d d6f2 b93b 7d9d 713b 2b34 883c
00000330: 32f8 a63b 9cc8 de3c 3ae8 763c bf0a 32bc
00000340: 9658 3d3d 14bd 9ebc 06ef 8ebb 9eb6 ff3c
00000350: 39e8 ddbb ea8f ea3c 171f b23b 29e4 f6b9
00000360: 76c6 87bd 0fe0 2cbd 9205 92bd cd3b 8fbd
00000370: 4800 8fbd 2edb c1bd d4d5 8dbd 53d3 b8bd
00000380: e2ab c5bd ba90 73bd edca 91bd 225a 8bbd
00000390: ac80 21bd d42b 73bd d7a0 cabd 824e a2bd
000003a0: 1f98 20bd 6d98 23bd 6c4d 503c f4b3 093d
000003b0: 174b 373c 8a43 413d 1a3c fa3b 5dc5 71bc
000003c0: c8fe c8bc 4448 71bc 509c 923c 6715 34ba
000003d0: c98d 87bd b124 2f3c d0a5 c3bc f509 8f3c
000003e0: 7c12 2a3c b901 96bc 2f8d 823b ea8b 33bc
000003f0: 6cfa e4bb 4d29 d03c efcf 9a3d 44f7 ccbb
-0.003893126 -0.0004725212 -0.03634222 -0.017366542 -0.049312774 -0.03574894 -0.023858326 -0.05553434
-0.051170737 0.048620157 -0.045266133 -0.009102146 0.025571628 0.002377998 0.008993632 0.06707459
0.03437198 0.009724439 0.0085800765 0.028419599 0.02589152 0.030813403 -0.018934866 -0.015357828
0.05664525 0.045691792 0.008549292 0.03683363 0.02542155 0.048113678 0.027538422 0.030372364
0.05639383 -0.0072526666 -0.0054651503 0.019432947 0.0070413686 0.03407969 0.055498607 -0.018026201
0.009962813 0.07280279 0.010350609 -0.008963275 0.03493894 0.0017283388 0.021916213 0.0033587103
0.02663174 -0.057305742 0.02749036 -0.0024491125 -0.02100154 -0.0050042765 0.0053419126 0.06677999
0.035199776 -0.02627082 0.04823467 0.049622856 0.06111811 0.033654235 0.052810643 0.0076348973
0.017191816 0.016081626 -0.017118417 0.018805396 0.015890528 0.07303432 -0.026036497 0.012878777
-0.054486595 0.005782991 0.026280714 -0.023285493 0.0040343674 0.054541666 0.00836747 0.015341387
0.0015942268 -0.04623476 -0.049035683 -0.0033312174 -0.0971185 -0.0028323035 -0.0118869655 -0.029914133
0.0143620595 0.020469675 -0.061693024 -0.04482479 -0.04853231 -0.07878749 -0.04001268 -0.022992995
-0.06637676 -0.08371648 -0.028744213 -0.07328105 0.0045782807 -0.019750522 -0.07826377 -0.019130131
-0.0138776675 -0.033889767 -0.036540624 -0.010669193 0.016411753 0.0141766425 0.030181326 0.016392533
0.035174236 0.03470277 0.00049519906 -0.017302696 0.011057265 0.032028444 0.02756576 0.030109145
0.0016185812 -0.0045698355 0.025033483 0.03264983 -0.014676358 0.045431167 0.007502497 -0.024810253
-0.014209344 0.0085244505 -0.01787324 -0.017027091 0.040680945 0.037995633 0.015414914 -0.012599233
0.011943655 -0.028918462 -0.02194792 -0.006417043 0.0030485948 -0.045078307 -0.016265333 -0.008576064
-0.028587718 0.026010517 0.00096210337 0.019673655 0.0006374976 -0.010598046 -0.029396009 -0.024159644
-0.0135438 -0.013343554 -0.044160277 0.005311876 -0.022881348 -0.026986577 -0.036220092 -0.00501267
-0.00056785764 -0.043644402 -0.0028648402 0.013504135 -0.004307882 0.03996554 0.027458498 0.025770418
0.038839243 0.05630093 0.09810487 -0.045461215 -0.031861566 0.015070137 0.0014611008 0.00646604
0.007418378 0.020502515 0.052260306 0.057755455 -0.06230124 -0.025541522 -0.003045203 -0.026180604
-0.027665468 0.018666165 -0.0115114665 0.030662192 0.0266759 0.0010888226 0.014052943 -0.008176431
-0.010477285 -0.021850295 0.0019654064 -0.009806887 0.0026225315 -0.01909732 0.03489204 0.04089411
0.043170642 0.0056747003 0.0036867552 0.016626438 0.005095505 0.027195267 0.015070016 -0.01086682
0.04622706 -0.019377269 -0.00436199 0.031215008 -0.006772068 0.028633077 0.005435835 -0.0004709077
-0.0662965 -0.042205866 -0.07129969 -0.06993828 -0.069824755 -0.09465633 -0.0692555 -0.09024682
-0.09651925 -0.059464194 -0.07118783 -0.06804301 -0.03942935 -0.05936797 -0.09893959 -0.079251304
-0.039207574 -0.039940286 0.012713771 0.033618882 0.011187336 0.04718355 0.007636559 -0.014756528
-0.024535552 -0.014726702 0.017896801 -0.0006869644 -0.0661884 0.0106899 -0.023882776 0.017460803
0.010380384 -0.018311368 0.0039841156 -0.010958651 -0.0069878604 0.025410319 0.075591914 -0.0062550623

fe1.bias f4 [64]
00000000: 4537 13bd 369c 52be 099c 6dbe 9511 9e3d
00000010: f20f b2bd d0aa 2f3e 5c3f 1cbe d88e b5bd
00000020: 2df0 ee3d 82b6 98bd d1a0 a23d 489f d3bc
00000030: 0ba2 a63d e039 d7bd c011 ddbd c9b1 e13c
00000040: 1319 573d 437f d03d e55e 673c e0a6 a53d
00000050: f2a1 f2bd 2917 f8bd edd2 403e c758 063e
00000060: 03d4 cb3d c56e ae3c c9c2 b93d b1ec ef3b
00000070: f30d 24be a861 223e 1dc6 52be 4dbc c33d
00000080: 7d08 5f3d 6423 58be 8735 25bd 260f a93d
00000090: 891c 62be 49e7 123d bfb8 1c3e c227 cb3c
000000a0: 1a84 6abe 1a58 20be a829 ddbc f0d6 013e
000000b0: a2ca 703d e953 0c3e 8cf5 073e b8ff 4c3d
000000c0: 34da b6bd 70ee 4e3e 8768 ba3c 6b79 5b3d
000000d0: 87b1 f6bd 262c 66be 557e 47be ecbb 21be
000000e0: fd6f 973d 477e b2bc c3c1 683d cdd2 8c3d
000000f0: 1d07 f6bd a415 e1bd f0fa 00be b7ce 383d
-0.03594138 -0.20567402 -0.23204054 0.07718197 -0.086944476 0.17155004 -0.15258545 -0.08865136
0.11666904 -0.074566856 0.079408295 -0.025832787 0.08136376 -0.10509086 -0.10794401 0.027550595
0.052514147 0.10180523 0.014121746 0.080884695 -0.11847295 -0.121137924 0.18830462 0.13119803
0.099525474 0.021293053 0.090703554 0.007321917 -0.16020946 0.15857565 -0.20583387 0.095574
0.054451454 -0.2110725 -0.04033425 0.082548425 -0.22081198 0.035865102 0.1530485 0.024799231
-0.22901955 -0.15658608 -0.026997402 0.12679648 0.058786996 0.13703884 0.13277262 0.05004856
-0.08928338 0.20208144 0.02275492 0.05358259 -0.120455794 -0.22477779 -0.19481786 -0.15794343
0.07394407 -0.02178873 0.05682541 0.068761446 -0.120130755 -0.10990456 -0.12595725 0.045119014

fe2.weight f4 [64, 64, 3, 3]
00000000: 4d7f 19bd 3b08 75bd 5dbc 873c 8df0 0fbd
00000010: 6348 16bc b767 8ebd c66d 45bd 32d4 95bb
00000020: 62ac 5f3c 9211 eabc 80c9 52bd e446 79bd
00000030: a801 8ebc 8d68 01bd 65c5 05bd a090 64bd
00000040: 41df a6bb d0e9 afbc 95b4 8ebd f6d9 0ebd
00000050: f4b7 c0bd 0c40 06bd a552 fabc eca0 94bd
00000060: 6bae adbd 3eb0 99bd b6ec 01be 8968 d73d
00000070: 1fde 1d3d 6595 8c3b 1539 3a3d 65d6 7ebc
00000080: df24 a9bb c7b9 a93d 3847 45bc 3805 553c
00000090: e39d 61bc d531 e53c a941 38bc fcda 5fbc
000000a0: 6d38 6fbc 2f85 633a 3db9 88bd 4767 1bbc
000000b0: 4fc4 75bd fe1f 03bd 3eb5 913c d27a 84bc
000000c0: 63ee efbc b076 ca3b a046 043c c06e 3c3c
000000d0: 7ce5 e6bc 68df 903c b455 00bd ff91 8bbd
000000e0: abd3 42bd bb23 02bd 3b70 86bd 4fdf 4dbd
000000f0: 321c 8bbd 853f bcbd 36d2 d9bd 7b02 37bd
00000100: c9df 19bd c1d0 6fbd 1193 82bc 2120 353b
00000110: b3be 403b 5205 39bd 96c7 cd3c 3b3f b73c
00000120: f148 27bd 67fc 1bbd 7876 023c 2d9d a9bc
00000130: 993a 9fbd b5a6 65bd 30b1 9dbc 1f5f 4abd
00000140: 1ee8 11bc b921 d4bc fb7a 75bc c39c 74bd
00000150: 827c 7a3c 0db9 9c3b 1a9b 88bb e8c0 d53c
00000160: 7a3f ef3a c363 80bd 176b eb3d f194 583d
00000170: f330 043e f80a 0a3d eed3 873c 9fac d73c
00000180: 2b60 1e3d 79cd 2f3d a704 3e3d ba9f 04bc
00000190: 8d43 8dbd 4236 71be fb92 82bc b60d cebd
000001a0: 9025 51be fe59 0c3d 8aad 16bd 5467 64be
000001b0: 2daf 443d f49f 533c 6cf8 753d b3a8 a9bc
000001c0: 3b59 3cbd 3c7d 33bd 9c55 713d 879b 013c
000001d0: 5bc6 82bb e275 0bbe 9fa4 92bd 9b09 18bd
000001e0: c6dd 16be f2db 63bd fcc7 1abd b4dd dbbd
000001f0: 749f 8bbd e7c0 87bd 96c9 edbd 3b08 90bd
00000200: b511 8ebd 4b5c 90bd b91c aabd 39f7 86bd
00000210: 47ba bdbd a607 75bd 3198 92bd 5a90 0dbd
00000220: d368 0cbd cb73 52bb 5cba ebbb cdb0 efbc
00000230: a8f2 f6bc f4eb 18bc 5117 6fbd ea95 5339
00000240: 08c4 3a3d 0f2e a03d d2a7 ee3d b2e3 a33c
00000250: 9d89 293d 8161 953d 6ce1 453d 2b9b 803d
00000260: 2f3d ae3d 4248 143d f036 4bba 8835 1b3d
00000270: 0ebe adbc 387d 2abd 6510 be3b 749c ee3b
00000280: 8a50 a5bc bfee 3f3c 403e a4bc 328a 8ebd
00000290: 12c0 b2bc c96c 82bc 9288 73bd 45fa 87bd
000002a0: 390b a1bd da9d 0cbd 3d30 57bd 5dbd 973c
000002b0: 296b 00bc c2e5 523c 307c 533d c952 55bb
000002c0: 8ec2 b23b cc03 ae3d 89ff f33c a90f b53d
000002d0: b660 7bbd fdfc b9bd 8108 88bd a7df 21bd
000002e0: de65 acbc 7edb 6fbd ce63 f9bc f809 6abc
000002f0: 4a6e 0cbd 8f90 64bd 5962 8cbc 57a4 72bd
00000300: 4f34 51bc 0f5d b8bc 6e6c bebd ed0d 21bd
00000310: 39e5 33bd 21a7 babd b787 b9bc 3cfa 73bc
00000320: 7059 babc a871 133c d74b a7ba 19a6 d93b
00000330: 8f52 cf3c ec9d d93c 037f 8cbc 3191 be3c
00000340: d6d0 9f3b 7011 8c3c cbd2 3d3b 6bd9 283c
00000350: be9e 96bb 6b1c 27bb 0396 f53c f763 9e3c
00000360: 9cf3 8c3c abf6 2cbc afb3 413c 0696 e33c
00000370: 6bae f1bc 9161 0b3c 029c d03c 5174 d43b
00000380: 25f8 3ebc 3f86 3ebd b887 19be 7b5e a7bd
00000390: 596a bcbd 8e4c bebd bb2f d1bd 53f3 a1bd
000003a0: 15c7 86bd f416 e9bd c985 9c3c 3d9f 39bd
000003b0: 32e6 0c3c 4886 2cbc 888b 75bd c663 8bbd
000003c0: 433c 723c 723b 46bd b8a0 b4bc 5527 ccbc
000003d0: f385 21bd 6ed8 e2bd 0e19 9fbc 3d6d 29bd
000003e0: 22fb c4bd 1adb 963c d008 8b3c a5c2 a5bd
000003f0: 2c93 6abd 5e81 c4bc 5ccc a6bd aae6 34bd
-0.03747492 -0.059822302 0.01656931 -0.035141516 -0.009172532 -0.06953376 -0.04820039 -0.004572415
0.013651939 -0.028572831 -0.051461697 -0.060858622 -0.017334774 -0.031593848 -0.032658953 -0.055801988
-0.005092532 -0.021473795 -0.06968037 -0.034875832 -0.09410086 -0.032775924 -0.030556986 -0.07257256
-0.08480533 -0.07504319 -0.12687954 0.105179854 0.03854191 0.00429027 0.045464594 -0.015554045
-0.005161866 0.08287387 -0.012040906 0.0130017325 -0.013770553 0.027977863 -0.011246123 -0.01366305
-0.014600855 0.00086792087 -0.066759564 -0.009485072 -0.060001668 -0.032012932 0.017786618 -0.016171847
-0.029288476 0.0061786994 0.008073479 0.011501014 -0.028185599 0.017684653 -0.031331733 -0.06814956
-0.047565144 -0.031772356 -0.06564375 -0.05026179 -0.06792487 -0.09191803 -0.10635798 -0.0446801
-0.037566934 -0.058548693 -0.015939267 0.0027637559 0.002941054 -0.04517109 0.025119584 0.022369018
-0.040841047 -0.038082507 0.007962815 -0.02070483 -0.077748485 -0.056067187 -0.019249529 -0.04940712
-0.008905439 -0.025894986 -0.014982934 -0.059719812 0.015288474 0.004782802 -0.00416888 0.026092961
0.001825317 -0.06269028 0.11495035 0.052876417 0.12909298 0.033701867 0.016580548 0.02632743
0.03866593 0.042920563 0.046391156 -0.008094722 -0.0689765 -0.23555854 -0.015939226 -0.10061209
-0.20424485 0.03426551 -0.036786593 -0.22305042 0.048018623 0.012916554 0.060051367 -0.020710325
-0.045983534 -0.043820605 0.058919534 0.007910616 -0.003990931 -0.13619187 -0.07160305 -0.037118535
-0.14733037 -0.055629678 -0.037788376 -0.10735646 -0.06817523 -0.0662859 -0.11610715 -0.0703282
-0.06936971 -0.070488535 -0.0830626 -0.06590123 -0.09264045 -0.059821747 -0.071579345 -0.034561493
-0.034279656 -0.0032112475 -0.0071938466 -0.02925911 -0.030145004 -0.009333599 -0.058371846 0.00020178375
0.045597106 0.07821285 0.11653103 0.020006035 0.041391004 0.07293988 0.048310682 0.06279596
0.085077636 0.036201723 -0.0007752022 0.03789285 -0.02120879 -0.041623324 0.005800294 0.0072818343
-0.020180006 0.011714636 -0.020049214 -0.069599524 -0.021820102 -0.015921013 -0.059456415 -0.06639532
-0.07863469 -0.034330226 -0.052536238 0.018522913 -0.007838049 0.012872161 0.051632106 -0.0032550565
0.0054553216 0.08496818 0.029784935 0.088408776 -0.061371528 -0.09081457 -0.06642247 -0.039519932
-0.021044668 -0.058558933 -0.030443098 -0.014284603 -0.034284867 -0.055801924 -0.01713674 -0.059238758
-0.012768819 -0.022505311 -0.09298025 -0.03931992 -0.043919776 -0.091139086 -0.022647722 -0.0148912035
-0.022747725 0.008999266 -0.0012763691 0.006642115 0.025307922 0.02656456 -0.017150408 0.023262592
0.00487719 0.017098159 0.0028964754 0.010305743 -0.0045965603 -0.0025499116 0.029978758 0.019334776
0.017206006 -0.010556857 0.011822625 0.027781498 -0.029502114 0.008507148 0.025465015 0.0064835926
-0.011655842 -0.046514746 -0.14993179 -0.081723176 -0.09199972 -0.092919454 -0.10214182 -0.079077385
-0.06580941 -0.11381331 0.019106762 -0.045317877 0.008599805 -0.010530062 -0.05994752 -0.0680614
0.014784875 -0.048396535 -0.022049293 -0.024921099 -0.039434385 -0.11076437 -0.019421127 -0.041363943
-0.09618212 0.018415023 0.016971976 -0.08093766 -0.05726926 -0.023987468 -0.08144447 -0.04416529

fe2.bias f4 [64]
00000000: 712b bdbc c745 08bc 741e 90bc d283 31bc
00000010: 32a7 8fbd f8af 8ebb 07ed f23c 318e efbb
00000020: e97b 48bd b113 cabc dc30 dfba 63bb 9ebd
00000030: d6f6 513d 7076 a1bc c476 24bd f43f 88bb
00000040: bf15 3f3d de2d 4bbd bcf6 233c 7f44 ffbc
00000050: 82c2 a6ba ac60 d43b 0cea b9bd 6b70 9bbc
00000060: d5c7 743d ff55 923d d859 30bd c2e9 9a3b
00000070: ffc0 af3c 0eca d8bc d156 043d 8531 32bd
00000080: b0d4 e73c ecf9 103d 7c52 80ba 672c fdbc
00000090: 80a6 47bb 38a9 c0bc 77e6 91ba 6b44 193d
000000a0: cd49 413d b334 12bd 155c f13c 18fb 17bd
000000b0: 4aa4 8cbc fd37 8dbc 11b5 32bc 32f0 16bd
000000c0: 21bb 40bd 9884 0d3d 1684 89bd a9c8 5d3d
000000d0: a00d 15bb bdce 5abd 7e13 4e3c bf42 813c
000000e0: 6c15 223d 7efb c7bd 7e59 62bd 02dc afbd
000000f0: 3784 a3bc b2fd 41bd 1c6f 9dba d93c 0ebc
-0.023092004 -0.008317417 -0.017592646 -0.010834651 -0.07014312 -0.004354473 0.02965404 -0.0073106517
-0.048946295 -0.024667593 -0.0017028111 -0.07750585 0.05126079 -0.019709796 -0.040152326 -0.0041580144
0.046651598 -0.04960429 0.0100075565 -0.031160591 -0.0012722763 0.0064812507 -0.09077844 -0.018974504
0.059760887 0.07145309 -0.04305443 0.004727573 0.021454332 -0.026463535 0.032309357 -0.043504257
0.02829966 0.035394594 -0.0009790207 -0.030904962 -0.0030464232 -0.02351819 -0.0011131306 0.037418764
0.047189523 -0.03569479 0.029462853 -0.037104696 -0.017168183 -0.017238611 -0.010907427 -0.03685016
-0.04705346 0.03455028 -0.067146465 0.054146443 -0.0022743717 -0.053419817 0.0125778895 0.015778897
0.03957121 -0.09764765 -0.055261128 -0.08586885 -0.019960506 -0.047361083 -0.0012011263 -0.008681499

sAtt_1.weight f4 [64, 64, 1, 1]
00000000: 79e9 683d fe3d 193d 5521 793c efeb 6dbd
00000010: 9ba3 6bbd 8b7f ecbc b798 0f3d ffe5 f53c
00000020: 5d22 f3bb 479c 483b 0421 c3bb 24b7 21bd
00000030: 1447 8d3d d123 893c 288d caba 5966 d73b
00000040: dfd6 803c 0d35 50bd 509f ba3c bb71 943c
00000050: 6426 30bd 5cc7 713d 76b4 e4bc a2d5 0f3d
00000060: 58bf 1a3d 947d 533d 7520 b53b 81e1 c03c
00000070: 60fb 2d3d 44eb 993d 5ebc 253d 9d62 913d
00000080: 2b9e e53c 0cef 4e3d c11e f6bb 3cf7 893d
00000090: da73 213d 967b 10bd 2af5 66bc 59b9 90bc
000000a0: 06b6 f93a b3c5 843d ecea ad3c 3b16 783d
000000b0: 3e6b 873d bf30 28bb 0547 b8bb 5bf2 12bc
000000c0: 1eed 22bd d65d 803c 6551 3b3d c854 933b
000000d0: 9e78 433d 66f4 323b a7cd 803c e0d4 973a
000000e0: 725e 133d 3036 88bd 2f35 18bd c95b 453c
000000f0: 15a8 cd3c 7c84 b9bc 6bbd 1bbd bf53 4abd
00000100: aa0e febc 2c35 08bc 98ce 00bd 30dd 5fb9
00000110: f249 47bd 6030 53bc 2eab 22bd 9966 7cbc
00000120: 2319 47bb 70ce 223d d8ad 413c 37f0 b9bc
00000130: 2d1b 1ebd d453 7bbd a855 c03c 879f bdbc
00000140: 3c04 f5bc 1733 653c 2b8e 3fbd 9d23 3abd
00000150: 7a61 2dbd 4a68 b6bc be32 56bd 5370 03bd
00000160: 2085 bebd a6d4 7dbd a058 70bd 56c2 e5bc
00000170: 5791 47bd 87bc 93bd f82d ddbc fc36 c2bb
00000180: b81c 83bb 7427 21bd ebe0 e03c d29b 91bc
00000190: c9d4 1ebc 6f7f 0ebd 83b1 aabc 4526 85bb
000001a0: af95 21b7 68e5 03bd 39bc 78bd ebbc 8bbd
000001b0: 2a5a 35bd 9de7 2fbd 7857 10bc ee52 53bc
000001c0: 9a23 083d 1d71 bdbd f918 8fbc a9e7 9bbc
000001d0: 1750 1bbd 8329 5d3c 3742 8dbd 05b1 1fbd
000001e0: a053 d1bc 8c90 17bd d500 f5bc 85b3 7abd
000001f0: 54cb 00bd 15a5 68bd 04e1 9e3d 0bd7 abbc
00000200: 202f f43c ca64 d03d fe97 893c 9373 bebc
00000210: d86a 9abd 3aba 50bd bef2 183d 4b84 a0bb
00000220: 0ada 283c 3165 4dbd 9f4a 54bd 1a20 bfbd
00000230: 9425 2f3d b9d0 d03d 304a 4ebd f5d1 fcbc
00000240: 48ef 0a3d fec0 20bd 7b37 513d 1242 513c
00000250: df26 243d bcd9 a33c 617a bcbc a10a ad3d
00000260: 51b9 353a d9b8 ac3c 688d 45bc 1b83 af3d
00000270: 7264 2c3d 82e1 913d 4ecf 5b3d 4af7 a93c
00000280: 4c66 173d d924 523d 7cb7 47bc e956 30bd
00000290: 3c06 c03d 5cfc ffbc 8f7d 1dbd 033e a13c
000002a0: d723 8b3d 919a c53d a874 a63d 874b 9ebd
000002b0: 0475 ab3d 80de 14bd 43bf 5c3d ff63 b0bb
000002c0: bc78 163d c23e cb3c f34c 92bb 2495 863d
000002d0: 0617 c03c e871 833c 1ab7 cd3d fd39 95bd
000002e0: 7022 02bc 1eb7 b5bc f1af 9b3c efd7 aabc
000002f0: 76e1 a03c 18ea b1bb a3d9 e7bc 73fa 1cbd
00000300: 398e 6cbd a0e7 2dba 3e23 4a3d b717 683c
00000310: ea4f 063d 1c17 afbc f506 05bd 860b 9f3c
00000320: c138 c83b 0847 833b ea17 3c3b 9058 863d
00000330: a718 b73b 6d42 46bd 7c7c 903c 803a dc3b
00000340: e55c babb acf8 11bc 7667 a73a ac64 d83c
00000350: 3d0b 80bc 6ce0 cabc cad8 0fbc f3ef 85bb
00000360: dd65 5cbc eed3 8dbd 721a f8bc cecc 49bd
00000370: 5541 aebc eafb 54bc 3eb6 0bbd 13d1 e43a
00000380: 8858 2ebd 5e7a 42bc f097 213c 5597 ce3a
00000390: 1ce1 36bd 48bd fbbc 95dd 223c 626a 133c
000003a0: ee58 1cbd 6c04 18bc 8a9c 18bd fd5d deb9
000003b0: f6c8 cfbc 339a d8bc cce6 5e3b 8eb2 0f3b
000003c0: fe59 913d 6d6e abbc fc60 cabc ee05 e33b
000003d0: 2883 29bd 21ab 113b ee93 ad3b 84ea 45bd
000003e0: c28b 1ebc c603 17bd a8fa 82bd 2128 613b
000003f0: 6a54 82bc 36b9 7ebd fdc7 fa3c 9f44 fb3c
0.056863282 0.037412636 0.015205701 -0.058086332 -0.057529073 -0.028869411 0.03505775 0.030016897
-0.007419868 0.0030610727 -0.0059548635 -0.039481297 0.06898323 0.016740711 -0.0015453445 0.00657348
0.015727459 -0.050831843 0.022781044 0.018120637 -0.043005362 0.059028015 -0.027918082 0.035115846
0.037780136 0.051633433 0.005527551 0.023545029 0.042476058 0.075155765 0.040462844 0.07098887
0.028029522 0.05052094 -0.0075109904 0.06736609 0.039417125 -0.03527411 -0.014096538 -0.017666506
0.001905144 0.06483021 0.021230184 0.060568076 0.06612252 -0.002566382 -0.0056237006 -0.008968915
-0.039776914 0.015669744 0.04573192 0.0044961907 0.04772245 0.0027306317 0.015723063 0.0011583827
0.035978742 -0.066509604 -0.037160095 0.012045809 0.025104562 -0.022646181 -0.03802244 -0.049396273
-0.031012852 -0.008313458 -0.031447023 -0.00021349336 -0.048654504 -0.0128899515 -0.03971403 -0.015405321
-0.0030379973 0.039747655 0.011821233 -0.022697551 -0.038600136 -0.06135924 0.023478344 -0.023147358
-0.029909246 0.013989232 -0.04676644 -0.04544412 -0.04232929 -0.022266526 -0.052294485 -0.032089543
-0.09302735 -0.061970375 -0.05867827 -0.028046768 -0.04872259 -0.07213693 -0.026999459 -0.005926965
-0.0040012263 -0.039344266 0.027451 -0.017774496 -0.009694287 -0.0347895 -0.020836597 -0.0040634
-9.631199e-06 -0.0322012 -0.060726378 -0.068231426 -0.04427544 -0.042945493 -0.008809917 -0.01289819
0.033237077 -0.0925009 -0.017467963 -0.019031363 -0.037918177 0.013498667 -0.06897395 -0.03898718
-0.02555257 -0.037003085 -0.029907623 -0.06120636 -0.03144391 -0.05679806 0.07757762 -0.020976564
0.029807627 0.10175474 0.016796108 -0.02324847 -0.0753991 -0.05095885 0.037340872 -0.004898583
0.010305891 -0.05014533 -0.051828977 -0.09332295 0.042760447 0.10196061 -0.05036372 -0.030861834
0.033919603 -0.03924655 0.0510783 0.0127721 0.040076133 0.020001285 -0.023007574 0.08449293
0.00069322163 0.021084236 -0.01205764 0.08569928 0.04208798 0.0712309 0.053664498 0.0207478
0.036962792 0.051304672 -0.012189742 -0.043051634 0.09376189 -0.031248264 -0.03844982 0.01968289
0.06793945 0.09648622 0.08127719 -0.077292494 0.08371928 -0.036345005 0.05389334 -0.005383014
0.036736235 0.024810199 -0.0044647395 0.06571415 0.023448478 0.016045526 0.100446895 -0.07286451
-0.007942781 -0.022182044 0.019004794 -0.020854918 0.019638758 -0.0054295175 -0.02830202 -0.038324784
-0.05775282 -0.0006633941 0.049350016 0.01416581 0.032791056 -0.021373324 -0.032477338 0.019414674
0.006110281 0.0040062703 0.0028700777 0.06559861 0.0055876556 -0.048403192 0.017637484 0.006720841
-0.0056873434 -0.008909386 0.0012771923 0.026415192 -0.015630359 -0.024765216 -0.008779714 -0.004087442
-0.0134520205 -0.06925188 -0.030286048 -0.049267583 -0.021271387 -0.012999514 -0.034109347 0.0017457329
-0.0425649 -0.011869995 0.009862885 0.0015761653 -0.044648275 -0.030729905 0.009940525 0.008997532
-0.038170747 -0.009278398 -0.037258662 -0.00042413166 -0.02536438 -0.026440715 0.0034012077 0.0021926495
0.07097243 -0.020926679 -0.024704449 0.006928197 -0.041384846 0.0022227245 0.0052971756 -0.048319355
-0.009676876 -0.036868833 -0.06395465 0.0034356194 -0.015909392 -0.06218835 0.03061294 0.03067237

sAtt_1.bias f4 [64]
00000000: 5d0f c13d d740 00be a3c7 c1bd 65b4 7abd
00000010: 119d 603d 32ae 05be cce3 713d 3f23 bbbc
00000020: ad93 263d 9b85 153e c3f8 afbd bf64 89bc
00000030: cf10 dabd 8349 103e d939 94bd 1169 143d
00000040: 03f2 993d c9ce fb3d 6bd7 593d 875b 0f3d
00000050: 0e2b a5bb b4f3 3f3d 8f8c 07bd 2d52 aebc
00000060: 48d2 02be 9cc9 2f3d b6ae e1bd c8cb 9abd
00000070: e074 9b3d f520 7e3b fcf2 00be 664e 3e3d
00000080: 9330 853d 3437 aa3d f111 db3c 9284 a83d
00000090: 3c19 f9bd aa1f b5bd 05e7 9c3c b4c2 96bd
000000a0: 191a 66bd c08b 813d 7fb2 fdbd 6464 47bc
000000b0: 453c 933d 0cfb de3d 4098 053e 7ace df3d
000000c0: e729 9b3d 1e64 febc 3a28 073e 2344 d5bd
000000d0: 75cd ad3c 1b4b a0bd ce74 f1bc e539 8b3c
000000e0: 4d8f 2abd 8d7e d1bd 6e29 8dbd 2b15 b63d
000000f0: 1294 a53d 3139 1ebc 53a2 96bd 4b31 663d
0.094267584 -0.12524734 -0.09461906 -0.061207194 0.05483729 -0.13054731 0.059055135 -0.022843955
0.04066818 0.14601748 -0.085923694 -0.016771672 -0.10647737 0.14090542 -0.07237596 0.03623301
0.07516863 0.122953005 0.053183954 0.034999397 -0.005040533 0.046863273 -0.03309303 -0.021279419
-0.12775528 0.04291688 -0.110196516 -0.075583994 0.075906515 0.0038776968 -0.12592691 0.046461485
0.065034054 0.083113104 0.026741954 0.08228411 -0.12163016 -0.0884393 0.019153127 -0.073613554
-0.056177232 0.06325483 -0.12387561 -0.012169931 0.0718923 0.10887727 0.1304636 0.10928054
0.075763516 -0.031053599 0.13198939 -0.10413387 0.021216134 -0.07826825 -0.029474642 0.01699538
-0.04164057 -0.10229216 -0.06892668 0.08890756 0.08084883 -0.00965719 -0.0735518 0.056199353

sAtt_2.weight f4 [64, 128, 1, 1]
00000000: b8e5 153d 28a8 ae3b f5b6 ae3c 11af 0cbd
00000010: 0a8c 5d3c 19b5 013c bb75 353d 045b 163d
00000020: f74f 70bc a9a9 023d faeb b2bc de7e 38bb
00000030: a25d 413d 77e8 b73b f1e5 603a ec1d 353d
00000040: 984d 033d 2cbf b43c a9fa 453d 6339 e63c
00000050: 19af 9e3d 71f1 8d3d b2c7 fa3c d848 8abd
00000060: b9bc aa3c 6e1b 7e3d b663 493d 2716 10bc
00000070: d59c 153d f8f7 ecbc e891 fe3c e32b 813d
00000080: 855f 8a3d b703 aa3d 5e2e 693c 78f5 113d
00000090: 68db e43c 75db 8abc a79f 273c 1f44 a23d
000000a0: 5f40 0f3d ca75 d23b a87d 2bbd 21d4 063d
000000b0: e9e3 853d 2251 b53b 6b82 1f3d 7277 173d
000000c0: d4f8 cd3c 67ae fe3d 3cdf b53c 5f6b 623d
000000d0: 3255 8e3b 261b 79bd 3a62 023d f0bb c23c
000000e0: e6d3 90bd 5fad 2d3d bf98 4fbb 63f5 b93d
000000f0: 3f35 723d 48d0 1a3e 69fc 0ebb 6e2b 513d
00000100: 2006 c8bc 3a54 4abd 0713 9abd 83ae 8bbd
00000110: 8206 94bd 4171 75bd f65c 9dbd aefa a9bd
00000120: ca0f 9fbd b503 f6bc 9bb4 9abd efbc 5fbd
00000130: 9853 313b a7a2 6dbc b518 c0bc 3107 4fbd
00000140: 6c27 3bbd efd8 21bd bcbb 2dbd 332c 58bd
00000150: d2ef 6abd 3108 85bd fa84 3cbc 0a45 80bd
00000160: 3c8d 65bd 5e1f bbbd 36eb 753c 373f 11bd
00000170: 33bb 7cbd c2ba 06bd 8c63 6abc b4dc 03bd
00000180: 1356 53bd c9d1 da3b 591b cdbd f6b8 04bd
00000190: 2355 03bc 5ede b5bd 9b8f a2bd 1879 3ebc
000001a0: 14b2 bfbc 624a 9fbd 3f8c 7fbd 4118 febc
000001b0: 59cb 80bd c249 04bd 2050 babc 6129 27bd
000001c0: bdfc 22bd 4dd9 113d 7c57 86bd b023 67bc
000001d0: 049b 07bd 3059 4dbd 2dce 85bd 38b6 72bd
000001e0: 46aa c3bd e4c4 58bd 1c62 b1bc d8dd f13c
000001f0: 1ac1 1abc b278 55bd 0962 0ebd 43a4 63bd
00000200: fea5 983a f547 1dbd ebce 833d 6c4e 563c
00000210: 148d eb3c e77c 703d 7ee2 98bb e69a 393d
00000220: 7d26 e73c 82cd 333d 76ad 03bd 089d f23c
00000230: 9892 41be b067 483d c7bf 31bd c3ff 02bd
00000240: 7a56 b03c d16a 9c3c 2d15 b43c 20ec 983c
00000250: 3839 3abb 83d3 df3c 8917 c5bc c291 9d3c
00000260: 1f0d f9bd 2829 f4ba f3a8 ebbd b81a 5bbd
00000270: ad6a 853c 3fdd 72bc ba13 85bd a0f0 67bb
00000280: 9230 d83c da50 c03b 04a6 c23c 844c b5b8
00000290: 27ef 15bd 9238 7bbd a7d3 273d 53e9 e6bd
000002a0: a859 dfbc e7ea e33c 8a20 923d 16d2 d03c
000002b0: 30ee eebb b017 a03c 3b47 0fbc ad19 2ebc
000002c0: 2ae3 113d 3807 b9bd 6619 e83b 8e0d 3bbe
000002d0: 7f98 c83c b015 633a e8ec 713c f9b6 983c
000002e0: 0931 933d 2ed0 0ebe c0b7 8abd 8797 e13a
000002f0: 4b34 603c f5c7 24be 7795 0ebd 6af8 3d3d
00000300: 1dc7 833c 27c6 613c 84a4 aa3d 5806 2fbc
00000310: b91b 763d bb0a b73d 487e 9d3d 76f2 e63c
00000320: 66ae 1b3c ed41 0b3d 6aeb 4bbd 32d0 233d
00000330: 5035 fabc 198e 093d 904d 56bd 0e4c 1fbd
00000340: c54e f23b fedc 22bc 81cd be3d d84a a33c
00000350: 6c9b 1b3d 1637 403d 04df 20bd 14f7 af3c
00000360: b9dd 42bd 1018 523d 4f29 45bd 7f68 04bd
00000370: 831b 6d3d 0c31 aebb a1d4 04bd b85b 823c
00000380: 3f56 243d 0281 763c 0909 013d d0a9 073d
00000390: 2a2d cebb 9ab4 0abb 7b1e a53d 2f97 dcbc
000003a0: dcc1 29bb 3b8c 0b3d 91f3 9b3d d3f9 803c
000003b0: 48b9 163d d089 d03c 2dbb d23c f597 253c
000003c0: f309 8a3d 360f c03c 618e 783d dc31 b2bd
000003d0: b30b 9c3d aecd d3bc 0f0b 2c3d 226c 7d3c
000003e0: 31ec c73b a0e5 63bd 4443 9cbb 3815 23bb
000003f0: 0419 bf3c 19a3 50bd 81f6 03bd a3e4 a33d
0.03659603 0.0053301044 0.021327475 -0.034346644 0.013522157 0.007916712 0.04430173 0.036707893
-0.014667503 0.03190008 -0.021841038 -0.002815179 0.047208436 0.0056124288 0.0008579186 0.04421799
0.03205642 0.022063814 0.04833475 0.028103536 0.07748241 0.06930817 0.0306128 -0.06752175
0.020841943 0.062037878 0.049167357 -0.008794344 0.03652652 -0.028926834 0.031075433 0.06307199
0.067565 0.0830149 0.014232246 0.035634488 0.027936652 -0.016950348 0.010230935 0.07923149
0.0349735 0.006422733 -0.041867882 0.032917146 0.06537611 0.0055333534 0.038942736 0.036979146
0.025143065 0.12435608 0.022201173 0.05527818 0.004343652 -0.060816906 0.031831957 0.023771256
-0.070716664 0.042401668 -0.0031676737 0.09080007 0.05913281 0.15118515 -0.0021817929 0.05106681
-0.024416983 -0.04939673 -0.075231604 -0.06820395 -0.07227804 -0.05992246 -0.076837465 -0.082997665
-0.077666834 -0.030031065 -0.07553979 -0.05462354 0.0027057882 -0.014504111 -0.023449281 -0.050543968
-0.045691893 -0.039513525 -0.042415366 -0.052776527 -0.057357617 -0.06495703 -0.011506313 -0.06263168
-0.056042895 -0.09136842 0.015009692 -0.035460677 -0.061701965 -0.03289295 -0.01430596 -0.0321929
-0.05159576 0.0066778404 -0.10014982 -0.032402955 -0.008015904 -0.08880304 -0.07937547 -0.011625551
-0.023400344 -0.07777859 -0.06238961 -0.031017425 -0.062887855 -0.032296903 -0.022743285 -0.040810946
-0.03979181 0.035607625 -0.06559655 -0.01410763 -0.03310682 -0.050133884 -0.065334655 -0.05925581
-0.095539615 -0.052922145 -0.021653228 0.029524729 -0.009445453 -0.052117057 -0.034761462 -0.055576574
0.0011646149 -0.0383987 0.06435951 0.013080221 0.028753795 0.058712866 -0.004665672 0.04531374
0.028216595 0.04389716 -0.032147847 0.029615894 -0.18903577 0.04892701 -0.043395784 -0.031982195
0.02152561 0.019093903 0.021982754 0.01866728 -0.0028415453 0.027322536 -0.024059074 0.019234542
-0.12160706 -0.0018627988 -0.11506834 -0.053492278 0.016286219 -0.014823257 -0.06497903 -0.0035391226
0.026390348 0.0058690133 0.023760803 -8.645005e-05 -0.036605027 -0.061333247 0.04097333 -0.11274972
-0.027264431 0.027821971 0.071351126 0.025490802 -0.0072915778 0.019542545 -0.00874501 -0.010626239
0.03561703 -0.0903458 0.007083106 -0.1826689 0.024486778 0.00086625945 0.0147659555 0.018641936
0.07187087 -0.13946602 -0.06773329 0.0017211296 0.013684343 -0.16091903 -0.03481051 0.046379484
0.016086156 0.013780153 0.0833216 -0.010682665 0.060085032 0.089375935 0.07690102 0.028191786
0.009502029 0.03399842 -0.049785055 0.039993472 -0.030543 0.03358278 -0.052320063 -0.03889089
0.007394644 -0.009940384 0.093165405 0.01993315 0.03799002 0.046927534 -0.039275184 0.02148012
-0.047574732 0.05129248 -0.048135098 -0.032326218 0.057887565 -0.0053159054 -0.03242934 0.015912876
0.040121313 0.015045406 0.031502757 0.03312093 -0.006292005 -0.0021164776 0.08062454 -0.026927559
-0.0025902903 0.03406928 0.07614816 0.015744125 0.03679779 0.02545634 0.025724018 0.01010703
0.06740179 0.023444753 0.060682658 -0.08700916 0.07619419 -0.025854912 0.042002734 0.015467675
0.0061011543 -0.05563891 -0.004768761 -0.0024884474 0.023327358 -0.050936792 -0.032217506 0.08002593

sAtt_2.bias f4 [64]
00000000: 42fe 52bd 396e 443d 3a32 82bd 9169 993d
00000010: e2b3 c43c 12ef a8bd d60c a2bc 145e 2cbd
00000020: db2d 0d3d af85 1dbd af8d 143d c489 283d
00000030: 769b 30bd cce3 31bc ce51 9b3d 4cc6 bbbd
00000040: 7222 b5bd 8670 083d b019 903d bd07 88bd
00000050: a418 26bd 9a2c 973d 795d a63d 8f31 573c
00000060: 323a b93d 4ed9 ad3d 9e75 92bd bc53 ae3c
00000070: ae87 933d 6b4f f6bc 28d3 a4bd 0366 8fbd
00000080: b179 a8bd be45 88bd 0862 7ebd 5a9b 113d
00000090: c48b 82bc dc85 9b3d 8f95 fabc 4cdf bfbc
000000a0: c1d0 44bd 1c0d 513c 5792 4e3d 85f0 adbc
000000b0: 7a40 90bd df51 82bd 01f1 f03c 4537 c5bd
000000c0: ff25 babd 98f7 0d3c a34e 8fbd 8a1e e93c
000000d0: db18 c1bd d3ff 2bbd a907 a8bd 230e 00bd
000000e0: 5364 00bd 198e eabc 5f5f d5bd 25f4 69bd
000000f0: dbe5 24bd 230d a63d 7cc4 c2bc 5430 753c
-0.05151201 0.04795668 -0.06357236 0.07490838 0.024011556 -0.08248724 -0.019781511 -0.042081907
0.03446756 -0.03845757 0.036267933 0.04114701 -0.04311701 -0.010857534 0.075839624 -0.091686815
-0.088444605 0.033310436 0.070361495 -0.06642101 -0.040550843 0.07381554 0.08123297 0.013134374
0.09044303 0.08488713 -0.0715134 0.021280162 0.07203613 -0.030067166 -0.08048087 -0.07001879
-0.08226336 -0.06653927 -0.06210521 0.035548545 -0.015935786 0.07593891 -0.030588893 -0.023421906
-0.048050646 0.012759473 0.05043253 -0.021232853 -0.07043548 -0.06363272 0.029411795 -0.096296825
-0.090892784 0.008664988 -0.06997421 0.028456945 -0.09428569 -0.04199202 -0.08204586 -0.03126348
-0.031345677 -0.02863221 -0.10418581 -0.0571176 -0.04025827 0.081079744 -0.023775332 0.014965136

sAtt_3.weight f4 [64, 64, 3, 3]
00000000: c6be 8d3c e019 393b 3b2a 803c 0ca7 a33c
00000010: d837 283d 74b6 cf3c 4e77 ef3c b8a1 c53c
00000020: e4dd 81bc e0ed 183d bc34 aebc 5ed0 50bc
00000030: ab1f 87bb d8b5 963b 8f60 cf3c 38b5 ebb9
00000040: e8f1 213c fb0e 67bb 5893 2dbc f43f 873c
00000050: ab56 423c 61f9 ca3c 0119 0dbc bc2b 5b3b
00000060: 81f5 013d 7ef8 793c 6eb6 52bc 533b 64bc
00000070: 4f1b d63c 8a4f b9bc a765 d8bc abc1 5fbb
00000080: 316c 983c 9962 183c f7cf d63c b428 b1ba
00000090: 3810 023c 4d10 37bc 370b 3bbb 454d a93b
000000a0: c03c 26bc bd3c 823c 22b6 bd39 2f58 cdbb
000000b0: 7051 cab8 6b53 a53c e4f3 1c3d ef1f 09bd
000000c0: e7c9 92bb 1e3e c1bc 5cf8 b3bc 7cb7 c7bc
000000d0: 8f60 62bb c59a 8bbc fc2a ebbb a573 923c
000000e0: 6733 e53c 1eda ef3b d008 753a 3c69 6bb9
000000f0: f2b1 ea3c d732 503c 8656 13bc a401 37bd
00000100: fe4e 993c b01d 2f3d 6106 b43b e693 8c3b
00000110: 5af4 9abc 3b95 17bb bce3 a93c 9c68 eb3a
00000120: 9220 173d e6c8 55bb a90b 06bc 095b 013c
00000130: 5984 633c dcce bdbc 5457 30bc 3c51 cfbc
00000140: f988 593c 5e29 523d 4592 54ba 6738 5cbc
00000150: 1906 bebc 226c ed3c 7730 b83a 4f30 c6bb
00000160: 717e 223c 081b 04bd 79e5 8abc 980a e33c
00000170: 34a0 83bc 5b02 993c c01b c13c b808 103d
00000180: 86a1 b2bb f9be 363d 35c3 08bd 6d51 153b
00000190: d401 28bd 354b 933c 0019 24bc da8f 003c
000001a0: e07f 283b 77af 22bb fd86 ecba d4fa 2e3b
000001b0: e1d3 333c 3027 adbc 5ba2 9c3c 4ce5 16bc
000001c0: cb0d 943c 182b 283d de1b 143d 54a4 99bc
000001d0: d037 823c 84a3 b53c 40b1 1a3d 541b 423c
000001e0: bbdf fcbb d007 033c 3382 a8bb 9082 4e3b
000001f0: 14f3 f7bc affc 293d 74b3 c2bb 5d18 76bc
00000200: 0297 59bc feb1 fc3c fe38 8d3c 826b 97bb
00000210: 32e9 d1bb 6660 80bc c53f e1bc 94d9 923c
00000220: b2e3 a3bc a725 87bc 014a 713b 0b58 2abb
00000230: 0ee9 7fbc 3cea 273c f020 ecba 5d1f 23bd
00000240: 8e74 07bd c950 04bc 90dc eaba cb6c 75bb
00000250: 0567 b53c aff9 efbc e171 5d39 a90a fe38
00000260: 8b67 863c 2837 0a3d d3f4 eb3a 63da 20bd
00000270: 9ee1 d5bb 1cc4 ae39 052b 8d3c 7408 de3c
00000280: 9df6 483c cda2 11bc 1c5a fb3c 62fb ecbc
00000290: 9f0b 18bd 7acc 183c 6feb f53c 7684 053c
000002a0: 066d ca3c 4651 843d 840a 2c3d f28e 93ba
000002b0: 195c e1bc a9e1 d4bb 5b4f 1f3d c7ee 153c
000002c0: d9b6 473c 4456 5f3c d294 49bc 1409 d53b
000002d0: 8a6c 36bc cb84 5fbd b71f 3f3c f2d1 13bd
000002e0: a0ee 583b d7e3 b23b cb88 bc3c 69c7 4a3c
000002f0: 47fa ccbb 339e 95bc 63ce 093d bdf3 9c3c
00000300: 6520 abbc d0c2 a83c 2795 813b 7cfb 77bb
00000310: 3cb4 49bb 619f c5bc 265f a33b 4454 caba
00000320: fd76 7f3c 4491 4abc 602a b3bb e79c 6a3c
00000330: c0c8 3fbc 58e9 c03c b874 6d3c 598e f63a
00000340: a731 51bc 852e 5d3c dcbd 74bc 0f43 9c3c
00000350: 2e16 5a3c 7677 933c b825 bcbc f18a 013c
00000360: 6f07 c13a 65bb 973b 4924 acbc 6165 a53c
00000370: b240 0e3c 04fe 3e39 77e4 e33c 4477 a9bb
00000380: c2f3 b2bc 9999 913c 5005 333a 6ae0 a9bc
00000390: ea94 c83a 9342 243c 937d c6ba 2219 b9bc
000003a0: a0e4 ef3c 3592 3ebb 8928 cebb 3b14 efbc
000003b0: 5860 f73b ad3e 823b fd36 003d 85b5 5d3c
000003c0: 0ee3 a23c 0901 023c 643a 383d b9fa 703b
000003d0: e790 debb 63f2 82bc c058 0c3b 524b 2fba
000003e0: e79c 343c b946 c73c fcba 28bc 59a4 0cbc
000003f0: 09dc 60bc 660a 2d3c 8559 d9bc 8474 b2bc
0.017302882 0.0028244182 0.015645137 0.019977115 0.04106888 0.025355555 0.029231694 0.024124965
-0.015852876 0.03733623 -0.02126538 -0.012744991 -0.004123648 0.004599314 0.025314597 -0.0004495771
0.009884335 -0.0035256732 -0.0105942115 0.016509987 0.011861484 0.024777116 -0.008611918 0.0033442816
0.03172827 0.015256999 -0.012860877 -0.01393016 0.026136069 -0.022620935 -0.02641566 -0.0034142535
0.018606277 0.009300851 0.026222212 -0.0013516159 0.007938437 -0.01117332 -0.002854062 0.005166682
-0.01014632 0.015898103 0.0003618459 -0.006266616 -9.6472795e-05 0.020181378 0.03831853 -0.03347772
-0.004479635 -0.02358919 -0.021969013 -0.024379484 -0.0034542417 -0.017041573 -0.007176755 0.01787741
0.027978612 0.0073197028 0.00093473215 -0.0002245055 0.028649304 0.012707434 -0.008992797 -0.0446793
0.018714424 0.04275292 0.0054939245 0.004290092 -0.018915344 -0.002312972 0.020738475 0.0017960253
0.036896296 -0.0032620966 -0.008181491 0.00789524 0.013886535 -0.023169927 -0.010763008 -0.02530729
0.013277286 0.051308982 -0.0008108954 -0.013441182 -0.023196267 0.028982226 0.001405253 -0.0060482393
0.009917841 -0.03225234 -0.016955124 0.027715012 -0.016067602 0.018677881 0.023572803 0.035164565
-0.005451384 0.04461572 -0.03338929 0.002278413 -0.04101737 0.017980197 -0.010015726 0.007846797
0.0025710985 -0.0024823823 -0.0018045601 0.0026699798 0.010975809 -0.02113685 0.019120386 -0.009209942
0.018072983 0.041056722 0.03615939 -0.018755116 0.015895754 0.022172697 0.037766695 0.011847336
-0.0077171004 0.007997468 -0.005142474 0.0031510927 -0.030267276 0.041500743 -0.0059418026 -0.015020457
-0.013280632 0.030846592 0.01723909 -0.00462097 -0.006405973 -0.015670966 -0.027496228 0.017926015
-0.020006035 -0.016497446 0.0036817791 -0.002599242 -0.015619529 0.010248717 -0.0018015187 -0.039824832
-0.03307014 -0.008075901 -0.0017918516 -0.003744888 0.02214385 -0.029293863 0.00021118626 0.000121136494
0.016406795 0.033744007 0.001800204 -0.03927077 -0.00652714 0.0003333398 0.017232427 0.02710364
0.012265828 -0.008888912 0.030682616 -0.028928462 -0.037120458 0.009326095 0.03001949 0.008149257
0.02471019 0.06460814 0.042002216 -0.0011257811 -0.027509736 -0.0064966273 0.03889404 0.009151167
0.01218959 0.013631407 -0.012303548 0.0065013263 -0.011134276 -0.05457 0.011665276 -0.03608889
0.0033101216 0.0054592895 0.023014447 0.012376645 -0.0062554213 -0.018263912 0.03364409 0.019159192
-0.02088947 0.020600706 0.003954548 -0.0037839105 -0.0030777594 -0.02412385 0.004985708 -0.001543649
0.015592334 -0.012363736 -0.005467698 0.014319635 -0.011705577 0.023548767 0.01449316 0.0018810733
-0.012768186 0.013499861 -0.014937844 0.019074945 0.013310952 0.0180013 -0.022967204 0.007906661
0.0014726947 0.0046304935 -0.021013396 0.020189943 0.008682417 0.0001821444 0.027818901 -0.0051716883
-0.021844748 0.017773436 0.00068291 -0.020736892 0.0015303169 0.010025638 -0.0015143625 -0.022594992
0.029283822 -0.0029078845 -0.0062914533 -0.029184451 0.007549327 0.0039747567 0.03130244 0.013532047
0.019883659 0.007934817 0.04497756 0.0036770536 -0.006792176 -0.01598472 0.0021415204 -0.0006686944
0.011023737 0.024325715 -0.010298487 -0.008584105 -0.0137243355 0.010561561 -0.026531944 -0.021784075

sAtt_3.bias f4 [64]
00000000: 4a85 c33c 2063 afba 3504 243d 8bdd c5bc
00000010: d0e5 05bc e085 4dbc 5893 f3bb 22af 1cbd
00000020: 0252 b13c d035 113c 0adf c83c d964 143d
00000030: becd 833c 58da 9e3c 5237 de3c d022 60bb
00000040: 9049 5dbc c624 3cbc bf24 113d 902f 4f3c
00000050: e84d c4bb f6df 08bd 2cc7 153c f858 f23b
00000060: 46e3 88bc 002b 903c b37e 02bd 10f2 603c
00000070: 911b 243d 40f9 8bbc b813 853b 51f1 013d
00000080: 42bb b43c 4e7a 10bd 9484 723c ce2a f83c
00000090: 4064 29bc 8649 e9bc 1fc6 25bd aee0 16bd
000000a0: 33ef a1bc 1e0c d3bc 5eb2 97bc 46bf d3bc
000000b0: 54fb 04bc 6b05 00bd a90f 0d3d f8e8 b4bb
000000c0: c0df 1eba 943b 2f3c 8635 92bc aee8 bcbc
000000d0: 2043 943a 3042 1e3b 5ed0 843c 0bac cdbc
000000e0: 6896 dabb 24e9 423c 486c cd3b 2cc1 27bd
000000f0: a1a6 1e3d 040f 303c b0ce d4bc 73f4 29bd
0.023867268 -0.0013380982 0.040043075 -0.024153491 -0.008172467 -0.012544125 -0.007433336 -0.038252957
0.02164555 0.008862928 0.024520416 0.03622899 0.016089316 0.019391224 0.027125988 -0.0034200437
-0.013506308 -0.011483377 0.035435434 0.012645617 -0.0059907325 -0.03341671 0.009141725 0.00739586
-0.016709935 0.017598629 -0.03185911 0.013729587 0.040065352 -0.017086625 0.0040611885 0.031724278
0.022061948 -0.03527289 0.014802117 0.030293848 -0.010338843 -0.028477442 -0.040472146 -0.036835365
-0.01976738 -0.025762614 -0.01851767 -0.025848042 -0.008116562 -0.031255167 0.034438763 -0.005520936
-0.0006060563 0.010695357 -0.017847788 -0.02306017 0.0011311509 0.0024148338 0.016212638 -0.02510645
-0.006670762 0.011896405 0.0062690116 -0.040955707 0.03873313 0.0107457675 -0.025977463 -0.04149289

sAtt_4.weight f4 [64, 64, 1, 1]
00000000: b527 f6bc 0c0f 98bc 1b40 0a3d bd46 23bc
00000010: 6ca2 043d dd3a 6abc 757a 8bbb 9109 97bb
00000020: 37b6 033c 5145 1b3d 178b 4f3c c455 263c
00000030: 42f1 f23b cb03 083b c994 f7bc 603d 343d
00000040: 6d2e ac3c 2388 6fbc 7574 e9bc a75f b53b
00000050: 46e3 7439 d67f afbb 4b1c ef3c fb6f 5bbb
00000060: 48c1 8c3c fbf7 2d3c 097b 62ba c909 eabb
00000070: 5cd5 10bc 2d99 4b3a 1b44 9ebc ea68 2a3c
00000080: 4066 87bc d2cc 05bd 372c 11ba 001c 31bd
00000090: 5218 cc3c 0241 1bbc ebf8 1bba b79f c23c
000000a0: f7c5 053c fbc4 74bc f1da 9ebc 4fd5 40bc
000000b0: 0e4d aebc d349 36bc e2d0 77bb 58e6 0a3c
000000c0: a4f9 c93c 6f0e 4b3b 1fca 93bc 7268 cbbc
000000d0: 7823 af3c 393a 7a3c 97a3 433c 0001 733b
000000e0: 34f9 dbbb 0f79 aebb 075e a4bc 8726 54bc
000000f0: 731b b938 2c25 99bc dd7f 563a 22fa 6b3c
00000100: 128b e9bc 6561 af3c 6766 863b 2434 df3b
00000110: f00f 21bc 1676 83bc 8228 dabc 5909 42bc
00000120: f49d 8aba 0b41 b03b 2ec7 abbc bd53 a9b9
00000130: 0a5a be3c a960 803b 8464 a0bb 5dbb 813b
00000140: d928 543b fb4f febb 3e30 cf3c acbf 55bd
00000150: 1e4f b3ba 726f 83bb bd62 cebc 7830 abbb
00000160: 9696 9bbc ef43 bb3c 697b 843c f6d9 89bc
00000170: 848e 0d3c 29e1 0dbd 8d1b 96ba e26a 203d
00000180: 3d6b b43c 8347 0b3d a7a3 9a3b 7dbc 7c3b
00000190: cf0a aebc 8700 eaba f3d9 d63c 529f 28bc
000001a0: dd86 3fbc d70f cfbc 035b 69bd 6ad0 aebc
000001b0: fdde 233d 457c 40bb f037 463c f7c0 cebc
000001c0: dda2 adbb c58e 33bb ff0d 9bba b752 3bbb
000001d0: d610 243d 8f3e f1bc f24f 153d b936 463c
000001e0: 6477 0fbc ddf5 043c 859c 063b 4b46 803c
000001f0: 4270 87bc 0917 b53b e017 713c 4ac7 873c
00000200: c956 1c3b ab76 b13b 85a0 93bc 513c 893a
00000210: 7cee 9a3c dd8d a13b ad5b 893b f989 a6bc
00000220: 2a69 baba 2ecf 8d3c 2feb 613c 242c c8bb
00000230: 45d2 80bc f09b 323b 64d9 91bc f9f2 983c
00000240: fecd 95bc b92e 0dbb e29b 21bd e956 07bb
00000250: 9d27 f6ba aca5 093d 2a67 d5bb b72e 3abc
00000260: e209 323c 1ca0 a5bc 0679 b9bc ee4b 313d
00000270: efb0 37bc deb2 6ebc b2d0 91bc cce0 fc3c
00000280: aa36 ebba dfef 973c c946 913c 3db5 eb3b
00000290: 3427 183d 1e8c df3c 02fe 47bc a8d5 09bc
000002a0: 645e 893c a957 803c 6d69 bcbb 1928 1cbb
000002b0: 49f1 103c a7ba 61bc d227 44bc 98bf 60bc
000002c0: 82ed 333b 240d dcbc 5d1b fab9 777d 32bd
000002d0: 1eb7 1e3a 4eb6 5b3c dc68 803c c0d0 f3bc
000002e0: 78fc fcbb 537c 6ebc a0de e53b b3b7 973c
000002f0: 8052 bebc 4988 0bbd aad5 15bb 5040 163b
00000300: aa9e 6e3d 5755 233c adbc 0b3c bec9 2f3d
00000310: a461 133b 89d0 633d 4e32 dc3b 45c9 543c
00000320: f8a8 5f3c 5286 293d 3f3b 8e3c 0e8d 57bc
00000330: 449f 3bbc e3a6 103c 128b 70bb ea6a ac3c
00000340: a4a8 a1bc 9262 14bc 0471 9fbb a2a3 903b
00000350: 0660 cabb f5aa 5abc 5944 66bc 3b1e 373d
00000360: a011 1dbc b413 90bb 4088 4b3c dd6b 05bd
00000370: 814a c4bb c2b4 9ebc 4b6d 1dbb 13b7 08bd
00000380: abff a83c 4a64 313d 5334 363c 8629 7fbc
00000390: bd7c 893c 580d 24bd c1c7 ac3b bcac 72bc
000003a0: 02cf b3bc f0d2 f33b 67a9 8abb 3dac 433d
000003b0: dc66 a93b 2b90 cdbc a03e 7cbb 2156 ecbc
000003c0: 7710 7d39 961c 12bc 2ace eabc 0bfb 8bbc
000003d0: a30e 6fbc c21c 223c e583 48bc 1bef 80bc
000003e0: 99af 8e3c e629 92bc bcd9 adbc f2d6 18bd
000003f0: 4014 0c3d c305 703c 8bbf d2bc 5328 20bc
-0.03004823 -0.018561862 0.033752542 -0.009965596 0.03238146 -0.014296261 -0.0042565414 -0.0046092947
0.008039049 0.037907902 0.012667439 0.010152284 0.007414014 0.0020754214 -0.030222313 0.044003844
0.021018231 -0.01461986 -0.028497914 0.0055350843 0.0002335432 -0.0053558154 0.029188296 -0.0033483494
0.017182007 0.010618205 -0.00086395495 -0.0071422798 -0.008839931 0.00077666604 -0.019319585 0.01040099
-0.016528249 -0.032666035 -0.00055378996 -0.043239594 0.02491394 -0.009475948 -0.00059498724 0.023757799
0.008164874 -0.014939542 -0.019391509 -0.011769607 -0.021276977 -0.0111259995 -0.0037813713 0.00847777
0.02465517 0.0030983945 -0.018040715 -0.024830077 0.021379218 0.01527267 0.011940858 0.0037079453
-0.006713057 -0.00532449 -0.020064367 -0.012948639 8.8266e-05 -0.018694483 0.0008182505 0.014402898
-0.028508697 0.021408746 0.004101563 0.0068116356 -0.00983046 -0.016047519 -0.026630644 -0.011843049
-0.0010575638 0.0053788475 -0.020969 -0.00032296582 0.023236293 0.003917773 -0.004894795 0.003959103
0.003237298 -0.0077609993 0.025291558 -0.052184746 -0.0013680195 -0.004011088 -0.025193566 -0.005224284
-0.018992703 0.022859542 0.016172128 -0.016827565 0.008639935 -0.034638558 -0.0011452303 0.03916443
0.022023791 0.034003746 0.004719216 0.0038564496 -0.021245388 -0.001785294 0.026226973 -0.010291891
-0.011689869 -0.025276108 -0.05697156 -0.021339614 0.04000758 -0.0029370945 0.0120982975 -0.025238497
-0.005298956 -0.002739833 -0.0011829733 -0.0028583237 0.04005512 -0.029448776 0.036453195 0.012098008
-0.008756492 0.008115259 0.002054007 0.015658518 -0.01653302 0.0055264276 0.014715165 0.01657452
0.002385544 0.0054157577 -0.018020878 0.0010470246 0.018912546 0.0049302415 0.004191837 -0.020329462
-0.0014222015 0.017310705 0.013788982 -0.0061087776 -0.015725264 0.002725359 -0.017803855 0.018670546
-0.018286701 -0.0021542741 -0.039455302 -0.0020651168 -0.0018780116 0.033605263 -0.0065125423 -0.011363677
0.010866614 -0.020217948 -0.022640716 0.043285303 -0.011211618 -0.014569012 -0.017799709 0.03086891
-0.0017945368 0.018546997 0.017733948 0.007193236 0.037146762 0.027288493 -0.012206556 -0.008412756
0.016768642 0.0156668 -0.0057498724 -0.002382761 0.008846589 -0.013777412 -0.0119723845 -0.0137175545
0.0027454798 -0.026861735 -0.00047704103 -0.043576684 0.0006054508 0.013410164 0.015675 -0.029762626
-0.0077205263 -0.014556008 0.0070150644 0.018520212 -0.023232698 -0.03406552 -0.002286295 0.0022926517
0.058256783 0.009969077 0.0085288705 0.042917006 0.0022488618 0.055618796 0.006719864 0.0129874395
0.013651125 0.041387863 0.017362235 -0.013156189 -0.011451546 0.008828851 -0.0036703986 0.021047074
-0.019733734 -0.009056704 -0.0048657674 0.004414038 -0.0061759977 -0.013346423 -0.014054381 0.044706564
-0.009586722 -0.00439688 0.012422621 -0.03257357 -0.005990327 -0.019373301 -0.0024021443 -0.03337772
0.020629724 0.043308534 0.0111208735 -0.015573865 0.016783113 -0.040051788 0.005272836 -0.014811691
-0.021949295 0.007440917 -0.00423162 0.04777168 0.0051697325 -0.025093159 -0.0038489476 -0.028849663
0.00024134094 -0.008917948 -0.02866276 -0.01708748 -0.014590892 0.009894552 -0.012238477 -0.015739014
0.017417716 -0.017842244 -0.021221988 -0.037314363 0.034199 0.014649811 -0.0257261 -0.009775239

sAtt_4.bias f4 [64]
00000000: 4a33 80bd 0079 3abb 584e 45bd 1a4f fc3d
00000010: 4ab5 91bd 706e 03bd 9c09 8dbd 76f7 8d3d
00000020: 0ae0 99bd bc0c 2fbd fad7 cebd ecbe b2bd
00000030: 6053 73bc 48bc 9cbd 7873 ea3d 188d 68bd
00000040: 8692 b93d c011 ba3d 8044 57bd 8ae1 bc3d
00000050: 447b 413d 40b6 a83d e21e f5bd d017 723c
00000060: e43d 8abd e899 f9bc 82e8 ae3d e057 f9bc
00000070: a6d0 8e3d bc16 05bd 80bc 873a 20fb fb3b
00000080: 1090 b73d 12fa d8bd d247 b5bd 305f 7ebc
00000090: a07d 9f3b 7837 623d 48fd 48bd 86b3 c13d
000000a0: 4826 a3bc 004e c539 20cf f23b e2e8 8c3d
000000b0: cc87 ebbd c6da c13d 54f5 013d 4a7f ec3d
000000c0: 582b 0a3d 98ef ad3c a499 563d 841a 303d
000000d0: 3838 cabc 7c7e b7bd 0aa3 973d e069 53bd
000000e0: 8043 e13d 0cd8 d5bd 2822 f63c 108f 143d
000000f0: 7865 8a3c 642c c03d 1cc2 693d 783b d63c
-0.062597826 -0.002845347 -0.048170418 0.12319775 -0.07114656 -0.032087743 -0.068865985 0.06931965
-0.07513435 -0.042736754 -0.10099788 -0.08727822 -0.014851421 -0.07653099 0.11447805 -0.056775182
0.0906115 0.09085417 -0.05255556 0.09222706 0.047236696 0.082378864 -0.11968781 0.014776185
-0.06750086 -0.030468896 0.08540441 -0.03043741 0.0697339 -0.032492384 0.001035586 0.0076898485
0.089630246 -0.10594572 -0.08851589 -0.015525624 0.0048672706 0.05522868 -0.049069673 0.094580695
-0.019915715 0.00037632883 0.007409945 0.06880356 -0.115005106 0.09465556 0.031728104 0.11547716
0.033732742 0.021232411 0.052392617 0.042994037 -0.02468501 -0.08959672 0.07404144 -0.051614642
0.10999203 -0.10441598 0.030045584 0.036269248 0.016894087 0.09383467 0.057069883 0.026151404
